ML/train_single_subject_myo_model.pth (torch, 430502 bytes, 22 tensors)

conv1.weight f4 [32, 8, 5, 3]
00000000: bb36 c03d c193 6cbd bcba d73d 6a5e 993d
00000010: 9c0a 513c 99db 9abc 1d54 9dbd 4b09 85bd
00000020: c935 f1bc afa9 4f3b a246 ca3b d1bf b13c
00000030: 0af6 cbbd e17e 8c3d 37b3 48bd bb73 f13d
00000040: 62fc 933d f38b bdbd 95d0 633d a9e0 3a3d
00000050: e7a5 bb3b e460 843d 692e 013d 0b9a e83d
00000060: 3dd3 573b d538 3fba 7f91 eb3c b3c4 8f3d
00000070: 6ccc 89bd 0968 873d 4082 07be 0642 c4bc
00000080: f49b cabd c79a d8bd 2ac3 26be bcf8 823d
00000090: 44c3 e9bd f374 e9bd dc44 a13d 32c9 4abd
000000a0: b40c 1bbd f25a f3bd 2a6a eebb 14f9 85bd
000000b0: 09a6 f33c 6d3e 7dbd 91f4 14be ca8b edbd
000000c0: 5062 9dbd fbea fcbd 11ea bcbd 79ef d138
000000d0: ad1f 6dbd c41c dfbb c8e3 63bd ad47 95bd
000000e0: ca18 b33c 83a0 4cbe 6962 1bbe 9467 8b3c
000000f0: e250 ab3d 02ce a0bc a5e7 5f3d 9617 f83d
00000100: e721 2d3c 9f36 0a3d bf5d d03d d809 13bd
00000110: e080 093e c90e f53d 00e6 e03d c05d 403e
00000120: 2ad5 0ebd 1f8b fe3d d715 37ba c205 a3bd
00000130: 6680 71bd ca11 dabd 72fe 723d 2696 cfbd
00000140: 253c 09be df00 9c3c 6652 a63c 6aca 63bd
00000150: 8da7 913c ca84 96bd 1646 a73d b0ac a7bd
00000160: 758e 3abd e632 febc e230 e13d 7e0f 3f3d
00000170: c5f4 9fbb 61d9 ca3c 1487 cabd 2b19 053d
00000180: da33 b13d 1164 df3d 0b2a 803c c310 513c
00000190: 7a39 583d d379 f93d 0284 1f3d 39be 0d3c
000001a0: e7b4 433d c30c 84bd 335e 15bd 222d e3bc
000001b0: 38d3 023d ba74 59bd 3c77 0bbd 73d4 233d
000001c0: 6ee5 4c3d 5186 a5bc 9131 cdbd 2b78 40bc
000001d0: 4783 c63d 8ba7 3ebd 62a8 193d 9419 a33d
000001e0: 9128 8cbc 4674 223d 0934 45bd 8223 303d
000001f0: 2ae4 763d 16dd 5ebd eccd 9e3d 68e6 4dbc
00000200: d902 563d 4506 4fbb 5823 813d 4778 81bd
00000210: 4064 aeba 775a 0d3d 1f94 6d3c 8ea5 30bb
00000220: 9358 b03b 5b07 31bd abf5 86bc 9647 a9bc
00000230: b943 693b 7d70 a5bc d94d 043d c851 e83c
00000240: d765 60bd eb34 cc3d 25e9 eebb 83d5 b53b
00000250: 2244 04bd f417 493c f30e 3d3c 0701 7b3d
00000260: b6b5 6c3c f403 8d3d 2698 1b3d 0604 36bb
00000270: 7a5b 8e3d ed32 983d b650 9dbb 3088 633d
00000280: b724 a2bc e723 4ebb 11c3 a03b edcd c73c
00000290: df32 a33c 9aa5 d53d e9f4 e23d bc1a f93d
000002a0: 2e33 d33d 4975 fe3d e4bc a13d d951 ee3c
000002b0: 3ba3 043e b6fe b33d 9f43 343e 39ed d93d
000002c0: 9a5c ed3c da88 573e 4b72 cd3d 212c 383d
000002d0: c906 2dbd 703b c8bd 70fc d8bd 01f1 233c
000002e0: a584 2bbe acf9 b3bd 87b5 14bd 4e60 c1bd
000002f0: 1c0f f2bd efb6 dabc 1803 7039 a66b 84bd
00000300: f1f9 5dbd 569d 18bd e972 b1bd 1574 4ebd
00000310: 025c acbc d037 b5bd 6cb3 0b3d bc62 d83d
00000320: d494 cdbd 274f ec3d f580 f33d 3d41 9fbd
00000330: 7bef 943d f3ba 02bd d4ae e0bd e0dc a23d
00000340: b6aa 023e 8a63 c6bd 4dba 7dbc dac2 fa3b
00000350: 3032 dfbd 0e17 423c fc78 943d 6ebc 583c
00000360: 3a6c 263d 2cd1 9c3d e8f7 ccbd e0b8 fcbc
00000370: e88e c53d 74b6 cebc b717 a53d 3e57 21bd
00000380: e1f4 7abd 71c8 18bc f747 47bd 0057 cabd
00000390: 4160 913d 3d3f 2dbd 22b2 3ebd ffd9 cc3d
000003a0: 6646 913d 16fb b5bc 3301 113d 5fcc c23c
000003b0: 7f7a 5d3c 5ab9 eb3d 9772 043e 8e24 a1bd
000003c0: d165 0dbd 4250 4f3c 0664 52bc 9282 88bd
000003d0: ead7 38bd e9ab 96bd b5b4 b63c 6005 c2bc
000003e0: 78a1 b83c 736f 873d d1f1 4ebd dc48 0d3d
000003f0: 0f01 9ebd f456 91bc d35b 913d bb50 02be
0.09385439 -0.057758097 0.10533664 0.07488711 0.012758877 -0.01890354 -0.07682059 -0.06495913
-0.029444592 0.0031686833 0.006172971 0.02169791 -0.099590376 0.06860138 -0.048999038 0.11789652
0.072258726 -0.09255209 0.05561884 0.04562441 0.005726564 0.06463793 0.0315384 0.11357506
0.0032932304 -0.00072945404 0.028755901 0.07019939 -0.067284435 0.0661164 -0.1323328 -0.023957264
-0.09893027 -0.105763964 -0.16285387 0.063950986 -0.11414197 -0.113992594 0.07874462 -0.04950828
-0.03785391 -0.11882581 -0.0072758393 -0.065416485 0.029742258 -0.061827112 -0.1454642 -0.11598928
-0.07684767 -0.123495065 -0.09224332 0.00010010502 -0.057891537 -0.006808849 -0.05563715 -0.07289062
0.021862406 -0.19983105 -0.15174259 0.017017163 0.083650365 -0.019629482 0.054664273 0.12113874
0.010567165 0.033743497 0.10174131 -0.03589806 0.13428068 0.11965711 0.10981369 0.18785763
-0.034871258 0.12428879 -0.00069841504 -0.079600826 -0.05896034 -0.10647924 0.05932469 -0.101360604
-0.1340185 0.019043384 0.020302963 -0.05561296 0.01778009 -0.07349546 0.08167665 -0.081872344
-0.045546014 -0.03103013 0.10995652 0.046645634 -0.0048814737 0.024761857 -0.09889045 0.032494705
0.08652468 0.10907758 0.015645048 0.012760344 0.05278919 0.12181439 0.03894425 0.00865131
0.047779944 -0.064477466 -0.03646679 -0.027731482 0.031939715 -0.053089835 -0.034049258 0.03999753
0.05002349 -0.020205649 -0.1001922 -0.0117474 0.09693008 -0.0465465 0.037514098 0.07963863
-0.017109187 0.03966167 -0.048145328 0.043002613 0.060276188 -0.054410063 0.0775412 -0.01256714
0.05224881 -0.003158943 0.063055694 -0.06321769 -0.0013305023 0.034510102 0.014500647 -0.0026954147
0.0053816526 -0.043219905 -0.016474565 -0.020664018 0.0035593344 -0.02019524 0.032300804 0.028359309
-0.054784622 0.09971031 -0.0072909766 0.005549134 -0.03229154 0.012273777 0.011539209 0.061280277
0.01444762 0.068855196 0.037986897 -0.0027773394 0.069510415 0.07431588 -0.0048008813 0.0555498
-0.019792898 -0.0031454505 0.004906066 0.024390185 0.019921718 0.104319766 0.11081869 0.12163302
0.10312496 0.12424714 0.07897356 0.029091762 0.12952892 0.08788817 0.1760392 0.1064095
0.02897482 0.21048298 0.10031565 0.04496396 -0.0422428 -0.09776962 -0.10595024 0.01000619
-0.16749819 -0.087878555 -0.03630593 -0.09442197 -0.11819288 -0.026698558 0.00022889336 -0.06465845
-0.05419344 -0.037259422 -0.086644955 -0.050403673 -0.021039966 -0.08848536 0.034106657 0.10565707
-0.10038152 0.115385346 0.11889831 -0.07776115 0.0727224 -0.03191657 -0.10970846 0.07952285
0.12760434 -0.09686954 -0.015486312 0.0076526226 -0.108982444 0.011846317 0.072496384 0.013228519
0.040630557 0.07657084 -0.10008222 -0.030849874 0.09646398 -0.025233485 0.08061164 -0.03938984
-0.06126869 -0.009325133 -0.048652615 -0.09879875 0.07098437 -0.042296637 -0.0465566 0.10002517
0.070935056 -0.022214454 0.035401534 0.023779092 0.013517975 0.115099624 0.12934338 -0.078683004
-0.034520928 0.012653412 -0.01284123 -0.06665529 -0.045127787 -0.07357008 0.022302965 -0.023684204
0.022537932 0.06613054 -0.050523583 0.034493312 -0.07715046 -0.017741658 0.07097592 -0.12726109

conv1.bias f4 [32]
00000000: 11ed 92bc 760a 5b3d 7fef d13b 3293 3abd
00000010: c7ce 9dbc a34f fdbb 3420 143d 4489 a9ba
00000020: 8b19 233d 2571 dfbc d694 9f3d 15be 0bbc
00000030: 8099 963d f363 dfbc 88b8 bc3c 3c36 9bbd
00000040: e4c5 9f3d b814 c43d 9a0b 0ebd 28b0 623d
00000050: bd8c 643b b460 17bd 9163 9ebd e067 c3bd
00000060: 5382 173c ac93 0dbd 8d56 ca3d c2e6 823c
00000070: 58fa c3bd 2101 dfbb 2c5d 943c 2eb5 4d3c
-0.017935308 0.053476773 0.006406724 -0.045550533 -0.019263638 -0.0077304407 0.036163524 -0.0012934585
0.03981928 -0.027275631 0.0779206 -0.008529206 0.073534966 -0.02726934 0.02303721 -0.07578704
0.078014165 0.09574264 -0.034679033 0.055343777 0.0034873926 -0.036957458 -0.077338345 -0.09541297
0.00924738 -0.03456466 0.098797895 0.015979175 -0.09569234 -0.0068055545 0.018110834 0.012555404

bn1.weight f4 [32]
00000000: e9fd 853f 6626 7b3f 4280 6e3f 29c1 863f
00000010: b064 773f b357 853f 79ac 843f f2e2 6f3f
00000020: 27ce 873f 7e27 7c3f de75 7c3f 5f3f 843f
00000030: 36e5 803f 9d34 873f 364b 7c3f ad1c 843f
00000040: 72a1 863f 7819 6e3f e1be 7e3f 01cb 783f
00000050: 8bbf 793f 0ed9 663f 6133 733f a699 823f
00000060: b3c0 7f3f 8df3 803f 2c2a 803f 617f 813f
00000070: 0139 863f 7d1b 853f 170c 7a3f 9300 8a3f
1.0468112 0.98105466 0.93164456 1.0527698 0.9663801 1.0417389 1.0365134 0.93705666
1.0609788 0.9849776 0.9861735 1.0331839 1.006995 1.0562931 0.9855226 1.0321251
1.0518019 0.9300761 0.9951001 0.9718476 0.97557896 0.9017495 0.95000273 1.020314
0.9990341 1.0074326 1.001287 1.0116998 1.0486146 1.0399014 0.976747 1.0781425

bn1.bias f4 [32]
00000000: 15b6 133e 1076 36bd 9e24 d6bb 445e 7aba
00000010: c06f 623d 28f4 1c3d 4a33 0d3d 45fe f33c
00000020: 0767 f53c 82a2 d9bc 8c2a 64bd fd32 ff3c
00000030: 3424 cf3c 0bb1 da3d f7b9 533b 749d d8ba
00000040: d973 543d 9fb3 a0bd ff6f a3bc 6c6a 51bc
00000050: 15a1 743b 73d1 9fbd 220e c0bc 2706 8fbc
00000060: 46a0 fe3d c041 953d a402 bf3a 0e8b 653d
00000070: 5013 6a3c 5fe8 3e3d 71aa ca3c 88af 313e
0.14424928 -0.044546187 -0.006535127 -0.000955079 0.055282354 0.038318783 0.03447274 0.029784331
0.029956354 -0.026566748 -0.05570464 0.031152243 0.025285818 0.106782995 0.0032306889 -0.0016526417
0.051868293 -0.0784676 -0.019950865 -0.012781721 0.0037327458 -0.07803621 -0.023444239 -0.017458988
0.124329135 0.072879314 0.001457293 0.056040816 0.014286831 0.046608325 0.024739476 0.17352116

bn1.running_mean f4 [32]
00000000: 0d49 8dbd b850 cf3d d444 71bd 3581 53bd
00000010: 67c0 a3bd d837 85bc a871 04bc c47b 41bd
00000020: cecc 3cbc 396c afbd f68c fb3d 408e 8ebd
00000030: 56e9 f73c 7f43 46bd 4e2d 673d ec7c 09be
00000040: c48c 073d eca0 c93d 1ab7 16bc 17ce ba3d
00000050: dab0 f83c c8fa 013c 3781 41bd 0264 61bd
00000060: 6ae9 09bc 4ebf 86bd de02 053e 305b 9239
00000070: 215a 99bd 1cb9 1dbd 5efb f0bc 74ae 51bc
-0.06898699 0.10122818 -0.05890353 -0.051636893 -0.07995682 -0.01626198 -0.008083738 -0.047237173
-0.011523439 -0.08565564 0.122827455 -0.06960726 0.03026263 -0.048404213 0.05643969 -0.1342656
0.03309323 0.098451465 -0.009198928 0.0912134 0.030357767 0.007933326 -0.04724237 -0.055027016
-0.008417467 -0.06579457 0.12989375 0.0002791523 -0.07487894 -0.038506612 -0.029416736 -0.0127979405

bn1.running_var f4 [32]
00000000: f666 763f fa97 0640 8d44 8840 026d b03f
00000010: 5593 4e40 2199 ae3f b324 8c40 efb7 4240
00000020: c2a8 9440 47e6 bb40 a4fd 5e40 f043 b340
00000030: 4451 8d40 f277 973f 461f 3840 2ee6 ae40
00000040: e2a7 8240 3f44 d93e 77f4 0f40 88d9 5540
00000050: 67e3 2940 587e 0d40 833f b23f 03be 4f40
00000060: 8897 313f 45f6 9e3f d1b5 2d3f c24b 443f
00000070: 402d 3340 f326 4c40 ba26 cf40 35e6 5e3f
0.96250856 2.103026 4.258368 1.3783267 3.2277424 1.3640481 4.37948 3.0424764
4.6456003 5.87186 3.484231 5.602043 4.41617 1.183348 2.8769088 5.465598
4.0829935 0.4243488 2.249296 3.341402 2.6545045 2.2108364 1.3925632 3.2459724
0.69371843 1.2418905 0.67855555 0.766781 2.7996368 3.1898773 6.4734774 0.8707002

conv2.weight f4 [64, 32, 3, 3]
00000000: 08fd 6d3d f3ee 573c 0eaf 4b3b aea4 ea3b
00000010: 9a5b 8a3d 8b33 1ebc e4b8 37bc 1802 d9bc
00000020: 92ab a43c 10ea 383c 5a3f 91bc 61dd 98bc
00000030: 4157 573d a161 a63c 86ae a13c f8f3 6abd
00000040: d7af a1bd 979d 733d 9939 22bc 6921 ec3c
00000050: 4609 1e3c ba31 863d ae6c 8bbc 9811 d6bc
00000060: 5d9b d1bc 4510 673c 4e19 a2bc 2678 4bbc
00000070: 54d9 8b3d cfa1 c03d 72ce 593d 327f d8bc
00000080: 448a bf3c 9a45 2d3d aff2 49bd 542e 96b9
00000090: e7d3 543d df41 f03b 4907 383d b1c5 333d
000000a0: cebf bd3c 6a11 9cbc 6d01 a43d 8768 a93c
000000b0: fc8d 90bc 604e 1e3d 0f20 a7bc ae43 203c
000000c0: 813e a63c b242 893d 0945 293d 81f9 563d
000000d0: b724 26bc 940a ae3a 8974 92bc 8b86 41bd
000000e0: e4a0 98bd 0917 69bc eeda c7bd 19d5 35bd
000000f0: 6493 babc 4bb0 ffbd 5412 8fbc 8226 32bd
00000100: 6fa6 883d b0b0 7b3c 3e8b c73b 4fc7 4dbd
00000110: 8f76 5c3d 5a19 6b3d b5ce 433c 3693 a53d
00000120: 0b77 e5bc 3f45 9cbd 98b6 b53c 72ab bebc
00000130: 4a4b babd 75e6 a2bd 10a9 a2bd 4851 a9bd
00000140: 310d 163d 8967 293a ab68 69bd f902 8abd
00000150: 979c 283d da28 b4bc a8c5 96bc 5902 733d
00000160: b964 9bbc b43f bbbc 34fb fc3b 035f 9dbc
00000170: 4a46 c4bc 02a6 1b3d 1636 b33c 506b 343d
00000180: 9ee4 3e3c 3778 31bd 8baf ed3c 51b3 91bb
00000190: 87f3 9ebd ce6e b5bd 44a7 a4bc fd8c 70bd
000001a0: ac59 5abd b638 73bd 26a0 64bd 091a 55bd
000001b0: dcef a9bd a5e6 04bd 1345 653d bd00 52bd
000001c0: d636 643d 9f86 503d aaf8 edbc a2d2 31bd
000001d0: 8ffd e8bb f31c 893d 4c33 913d 2b39 ff3c
000001e0: 82b2 4d3d e9ce 803c bd52 67bc 47c5 abbc
000001f0: e22f 023d c513 e3bb b056 e53c d75d 30bc
00000200: ace3 673c a9ed e23c 388a 3bbd 977d aebd
00000210: b61b 41bd 0ff6 1ebd bad7 cdbd 37a0 ba3c
00000220: d006 8abd 7ead 56bd 2abf 0cbd af0d 0abd
00000230: 1cd4 39bd 57c0 033a 671d 85bd ff51 7a3a
00000240: f406 8dbd 7293 0abd 816b 0fbc be14 3e3c
00000250: 59d8 89bd 0060 c9bc d37d 34bb e6b7 d3bd
00000260: 7df8 b5bd 3f67 dcbb 7eae 51bd 099a cfbd
00000270: e60d a73c 5ba2 903c b774 e2bc c445 12bc
00000280: 4678 303d 9208 c4bc c07e 853d a8d3 fa3c
00000290: c43e 8ebc 043f 0a3d bf12 a83b eff9 9c3d
000002a0: d885 b8bc dfc0 1a3d faf0 863d 65b8 473d
000002b0: 5024 7b3a 60c4 58bd 7f1e 803d 8778 2d3d
000002c0: f461 86bd a8f2 01bd ac40 e43c 9451 79bd
000002d0: beac 373d fed8 2a3a 06bb 01bc e6b9 d33d
000002e0: 9cc9 bf3d be6b 0b3d 904c a03d aaa7 253c
000002f0: 778a 993c e18d babb 2250 a1bc ce0d 1f3d
00000300: 0ccd 85bc 417a 1bbd edd9 883d 262a 1f3d
00000310: 48e6 20bd b19d 4e3d 2883 783d bb1c 833a
00000320: 662c 973d 03d0 18bd 4ce6 f7bc 10a6 33bc
00000330: afa7 653c ddde a43d 6480 53bc d32b 673c
00000340: f782 a43d ee1c 753d 9d40 a33d 32fc 2f3d
00000350: de15 87b7 0710 b3ba e6f4 91bc c72c 72bc
00000360: 19e8 553d 59f6 c83c 003f a23d fbc0 b63d
00000370: 494a 9c3d b690 4d3b c8f3 4a3d 2026 4eb9
00000380: 7ab1 383d 0076 4e3b 1910 943d 6e05 1e3d
00000390: 79f3 533c 4820 8b3b d40c 6f3d 15a3 943d
000003a0: 7e9f f63b ee12 90bd 3452 993b 71fd 8cbd
000003b0: 7114 11bc 890e aabc b763 34bd 9efd 22bc
000003c0: 42fd 32bd 085b 90bd 0bcc 16bd b746 d83c
000003d0: a88f fdbc 95d2 343c 1a81 083c d708 a43c
000003e0: c105 943d 7422 913d c076 f43c c7ae 0b3d
000003f0: 92b5 9a3d 68f8 09bd 9a40 023c 5d04 9d3b
0.058102638 0.0131795285 0.0031079683 0.0071607446 0.06755753 -0.0096558435 -0.011213515 -0.026490256
0.020101342 0.011286274 -0.017730404 -0.01866025 0.052573446 0.020310225 0.01973654 -0.057361573
-0.07894867 0.05947646 -0.009901428 0.028824525 0.009645766 0.06552453 -0.017019596 -0.026131436
-0.025586778 0.014103 -0.019787457 -0.012418782 0.068285614 0.094058625 0.053175397 -0.026427839
0.02338136 0.042302705 -0.049303707 -0.00028644747 0.0519599 0.007332071 0.044928823 0.043889705
0.023162749 -0.019051272 0.080080844 0.020679725 -0.017645828 0.038648963 -0.020401029 0.009781761
0.020293476 0.06702174 0.041325603 0.05248404 -0.010140589 0.0013278299 -0.017877834 -0.04724745
-0.074525625 -0.014226683 -0.097585544 -0.04439268 -0.02277536 -0.12484797 -0.017464794 -0.043493755
0.0667237 0.01536195 0.006089597 -0.050238904 0.053824004 0.057397224 0.011951138 0.08084719
-0.028010866 -0.07630395 0.022181794 -0.02327511 -0.090963915 -0.079541124 -0.07942402 -0.08267456
0.036633674 0.00064622663 -0.056984585 -0.06738848 0.04116496 -0.021992136 -0.018404797 0.05932841
-0.018968927 -0.022857524 0.0077203754 -0.019210344 -0.023959298 0.038000114 0.021876376 0.044047654
0.011651186 -0.043327536 0.02901437 -0.004446425 -0.07761293 -0.08859025 -0.02009929 -0.058728207
-0.053308174 -0.059380256 -0.055816792 -0.052026782 -0.08297703 -0.032446522 0.055974077 -0.051270235
0.055716358 0.050909635 -0.029049236 -0.043413766 -0.0071103047 0.06694975 0.07089862 0.03115519
0.050219066 0.015723662 -0.014118847 -0.020968093 0.031783946 -0.006929847 0.027995437 -0.010764561
0.014153402 0.027701216 -0.045786113 -0.08520048 -0.047145568 -0.03880888 -0.10050912 0.022781475
-0.06739581 -0.05241155 -0.034361996 -0.033704456 -0.0453683 0.0005025914 -0.06499749 0.00095489615
-0.06886092 -0.03383202 -0.008753658 0.011601625 -0.06730718 -0.02458191 -0.0027540817 -0.1033781
-0.08885286 -0.006726175 -0.0511918 -0.10136802 0.02039237 0.017655542 -0.027643545 -0.008927766
0.04308345 -0.023929868 0.06518316 0.030618504 -0.017363913 0.033751503 0.005129188 0.076648585
-0.02252476 0.037781592 0.065889314 0.048759837 0.0009580301 -0.052921653 0.06255817 0.042351272
-0.06561652 -0.031725556 0.02786287 -0.060868815 0.044842474 0.00065173197 -0.007918125 0.10338192
0.09364626 0.034038298 0.07827103 0.010110775 0.018742783 -0.005693183 -0.01969153 0.038831525
-0.016333126 -0.037958387 0.06682191 0.038858555 -0.039282113 0.050443355 0.060671955 0.0010003069
0.07381515 -0.03730775 -0.030261181 -0.010964885 0.01401703 0.0805032 -0.012909029 0.01410957
0.08032792 0.059842043 0.079713084 0.04296512 -1.6103437e-05 -0.0013661393 -0.017816972 -0.014781184
0.0522233 0.02453153 0.079221725 0.08923527 0.07631356 0.0031366772 0.049548894 -0.00019659894
0.04509113 0.003150344 0.07229633 0.038579397 0.012936466 0.0042457916 0.058361843 0.07257668
0.007526337 -0.070348606 0.004678989 -0.068842776 -0.008854971 -0.020758884 -0.044040408 -0.009948162
-0.043698557 -0.07048613 -0.036815684 0.026400907 -0.03095229 0.011036535 0.008331561 0.020023746
0.0722766 0.070866495 0.02984178 0.034102228 0.07554163 -0.033684164 0.0079499725 0.00479178

conv2.bias f4 [64]
00000000: 4c95 d1bc 5104 403d d6fa 46bd 3a1c 6dbc
00000010: 9f05 9b3c 276d 0e3d 3e57 113d 4d3a 2f3d
00000020: f902 ad3a c503 c7bb 2177 2d3d 2b9c 343d
00000030: 52b4 303d a148 fb3c 2df2 3dbd 72c5 033b
00000040: 2268 14bd fe25 043d 8dde 583d 76f9 113d
00000050: 94c6 023d 7ba3 21bd ac9b 363d 46c5 0a3d
00000060: d9aa 4a3c 193c 563d fffc 573d d183 38bc
00000070: f52c 37bd b788 ec3b 45cb 5bbc 60d7 71bd
00000080: 1eee 0e3d 07f3 ff3c ecda a5bc 209e 503c
00000090: 624b 473d ddb4 f0bc 9689 353d e5fe 3e3d
000000a0: cc8f 31bd 405c 09bd b525 3ebc 513e d7bc
000000b0: 24bd 313d 15b7 753d 623a fc3c 1ba9 91bc
000000c0: 0ecb d93c 58b2 1bbd 97fa 9cbc 4c06 71bd
000000d0: ca91 2b3d 1952 2e3d 448a a63c ff77 343d
000000e0: ede0 123d 1b70 0bbd 61af 583d eb8e 5c3d
000000f0: 50cd 22bd 6048 713d 24f7 653c ca39 973c
-0.025583886 0.046879116 -0.04857906 -0.014472062 0.018923579 0.034772065 0.03548359 0.04278021
0.0013199738 -0.0060734474 0.04234994 0.044094246 0.043140717 0.03067428 -0.046373535 0.00201067
-0.03623212 0.032262795 0.052946616 0.035638295 0.03192766 -0.039462548 0.044582054 0.03387954
0.012369835 0.052303407 0.05273151 -0.011261896 -0.04472061 0.007218446 -0.013415162 -0.05904329
0.034895055 0.031243814 -0.020245992 0.012733012 0.048655875 -0.029383117 0.044320665 0.046629805
-0.043350026 -0.033535242 -0.01160567 -0.026274832 0.04339327 0.059989054 0.030789558 -0.017780831
0.026586082 -0.03801188 -0.01916246 -0.058843896 0.041887082 0.042558763 0.020329602 0.04405975
0.035859037 -0.03404246 0.05290163 0.053847235 -0.039746583 0.058906913 0.014035974 0.018460173

bn2.weight f4 [64]
00000000: 072c 813f a86d 843f fa1a 7a3f 20ae 803f
00000010: 9e1f 743f dc4a 813f afd9 823f 333e 773f
00000020: 9e67 843f 3184 813f 7a49 893f 1dbe 7f3f
00000030: 3f6c 763f 0968 783f 7188 823f 944b 863f
00000040: b7fa 643f 55e0 7d3f 7e5f 793f 1b81 843f
00000050: 9c39 6e3f 34f3 783f 9293 843f 7a70 883f
00000060: 8777 863f ab0a 813f b40f 7f3f 004b 803f
00000070: c1fe 723f 34c5 833f 8c12 7c3f c767 873f
00000080: 4342 833f 3727 833f bc22 813f 51fe 803f
00000090: 4d67 7c3f c78c 843f 1c3a 843f d1a9 823f
000000a0: 0531 753f 5e4d 833f aa26 7d3f 47e9 843f
000000b0: 941e 843f d5d3 8a3f ff80 6f3f 4c09 813f
000000c0: cec5 7e3f af39 803f 713b 753f 00ee 833f
000000d0: 317b 763f 50b0 7a3f d414 7e3f f747 803f
000000e0: 1995 7f3f 123c 6e3f 3a05 823f 7ead 753f
000000f0: 43b4 6c3f bfb4 813f 5f51 7c3f e95f 833f
1.0091561 1.0345964 0.9769741 1.0053139 0.95360744 1.010097 1.0222682 0.96579283
1.0344121 1.0118467 1.0725548 0.99899465 0.9625892 0.97033745 1.0197889 1.0491815
0.8944506 0.9917043 0.97411335 1.03519 0.93056655 0.972461 1.0357535 1.0659325
1.0505227 1.0081381 0.99633336 1.0022888 0.94919974 1.0294557 0.984658 1.0578545
1.0254596 1.0246342 1.0088725 1.0077611 0.98595124 1.0355462 1.0330234 1.0208074
0.9577792 1.0257986 0.9888712 1.038369 1.0321832 1.0845896 0.9355621 1.0080962
0.99520576 1.0017604 0.95793825 1.0307007 0.96281725 0.9792528 0.9925053 1.0021962
0.9983688 0.9306041 1.0157845 0.95967853 0.9246256 1.0133284 0.9856166 1.0263644

bn2.bias f4 [64]
00000000: 94e8 a2bb 2074 3dbb 59ac 303d a87b 1bbd
00000010: a377 59bc bfa5 203d 92a5 ccbb 1b63 efbc
00000020: 36e1 e33b 462e e23c f550 3c3d 0628 11bb
00000030: 57c3 32bc 6489 01bd 6cb3 e9bb 733c 1a3c
00000040: 50d6 99bd 9286 32bc 399f 8b3a 589f c83c
00000050: ac3a c2bd e4b5 a6bd 5a03 72bc a966 803d
00000060: f968 443d ab2b 10bd 8833 713d 5e89 1a3d
00000070: e564 99bd 1fd6 bfbc 43fe b2bc 2acb 303c
00000080: 8741 d03c 3d94 8e3c 03fb d13c df5e bd3b
00000090: c302 2f3d cf04 bd3c f274 eb3c 2d02 933d
000000a0: 9b08 5b3d 764a 4d3c 241b f9bc d23e bc3d
000000b0: c9b9 2c3d a340 5e3d ba8e f8bc e798 5abc
000000c0: 0ed0 a6bc 892a 27bd b6ea 33bd 51cd db3d
000000d0: 6fa2 5c3d 2664 ef3a ea49 34bd 65ef 303b
000000e0: 84b7 ddbc 31e4 d63c 2d97 0b3d 8195 58bd
000000f0: 09bf 87bd 6d0a 423b 88f5 6a3d 9b75 183d
-0.004971573 -0.0028908327 0.043133114 -0.037959725 -0.0132731525 0.039220568 -0.0062453235 -0.029222062
0.0069543375 0.027609956 0.045975644 -0.00221491 -0.01091083 -0.031625167 -0.0071319845 0.009413826
-0.0751158 -0.010896342 0.001065231 0.024490044 -0.09483847 -0.08140162 -0.014771307 0.06269581
0.047951672 -0.035197895 0.058887035 0.03772866 -0.07489947 -0.02341753 -0.021849757 0.010790626
0.02542187 0.01740467 0.025632387 0.005779132 0.042727243 0.023073582 0.028742287 0.07178149
0.053475004 0.01252996 -0.03040845 0.091916695 0.042169366 0.05426086 -0.030341495 -0.013342119
-0.02036288 -0.04081205 -0.04392501 0.1073252 0.053865846 0.00182641 -0.044015802 0.002699816
-0.027065046 0.026231857 0.03407972 -0.052876953 -0.06628234 0.0029608265 0.057363063 0.037221532

bn2.running_mean f4 [64]
00000000: adc1 ba3b ace2 39bf 0188 edbf 4b83 9fbd
00000010: 1f66 b7bf 3644 23bf bde9 a8bc d3ed 20bf
00000020: c7f7 08be 0779 1e3f 7afd 57bf 847a 173f
00000030: 7b50 993e fc99 0dbc 800a a2bd 6b1b 673d
00000040: 6ca7 45bc 5e70 8dbe ced3 64bf 0c10 07bd
00000050: 34f2 11be fafc fb3e 820b 223d 7826 7abf
00000060: 96b6 aabf 300e ffbe 0921 81bf 18f1 14bf
00000070: 1e38 503f e675 ea3d ef69 d3be f03c 50bf
00000080: 8a9a 003f d5ea 5ebd a0e6 4c3e bdc1 3c3e
00000090: 18a9 86bf 62d6 17bf deb4 9f3e d465 f9be
000000a0: a20a babf d7ab 0d3f ab5f 0b3f c880 8fbf
000000b0: 6500 c1bf d46e 94bf c71e 763f b254 353f
000000c0: 621d a63d 10ae 6c3f b5ac 8cbe 056e 56c0
000000d0: 6c36 2ec0 aa04 b6be e381 febd 1009 d93e
000000e0: c84e ebbd b53f ebbf 00a3 8f3e f8c8 95be
000000f0: 44c4 a3bf f378 4d3e fd49 b5bf 060a c03e
0.0056993575 -0.726115 -1.855713 -0.07788714 -1.432804 -0.63775957 -0.020619268 -0.6286289
-0.1337577 0.61903423 -0.8437115 0.5917132 0.29944214 -0.00864267 -0.07912159 0.056422632
-0.012063842 -0.27624792 -0.8938569 -0.032974288 -0.1425255 0.49216443 0.039561756 -0.9771495
-1.3336971 -0.49815512 -1.0088207 -0.5818038 0.8133563 0.114482686 -0.41291758 -0.81342983
0.5023581 -0.054423172 0.20009851 0.1843328 -1.0520353 -0.593115 0.31192678 -0.487105
-1.4534495 0.5534033 0.5444285 -1.1211176 -1.5078245 -1.1596322 0.9614071 0.7083236
0.08111073 0.924531 -0.27475515 -3.350465 -2.7220716 -0.35550433 -0.12427118 0.42389727
-0.11489636 -1.8378817 0.28054047 -0.2925489 -1.279427 0.2006567 -1.4163204 0.37507647

bn2.running_var f4 [64]
00000000: 9ab7 9840 4cc3 7b40 e2bd 9040 1c05 3b40
00000010: 310a ba40 fea6 a140 7848 ce40 fb31 8e40
00000020: c793 ac40 9aa5 9f40 a96d db40 9230 bd40
00000030: 99a0 9140 a99d 1640 e3df 8940 3de4 b340
00000040: 55b3 7c40 b59e b840 883a 4340 ddd8 cb40
00000050: 2b3a 1b40 57e2 8e40 22a2 9340 4d4d 1341
00000060: 50e5 8c40 d75a 3340 b55d de40 8075 aa40
00000070: 24fa 2840 3903 4e40 605f 6240 991b ee40
00000080: c361 be40 23e8 9340 9589 9940 ebb1 ad40
00000090: dba6 e840 70dc 7c40 5617 e740 ae6d 2e40
000000a0: 2391 fc40 a190 a040 f08f 8c40 49b6 c840
000000b0: b1d4 d740 1a9f a140 5a99 953f aa7c 8640
000000c0: 47b2 a240 7029 6f40 36de 9140 d377 9940
000000d0: 357a 8440 df02 db40 241e 3940 da3f b340
000000e0: d456 5840 7664 d440 16bd 8a40 b9b8 4940
000000f0: 8778 5c40 9d01 8040 9349 1d41 f651 9a40
4.7724123 3.933795 4.523179 2.9221869 5.813744 5.051635 6.4463463 4.443601
5.393039 4.988965 6.8571362 5.912179 4.550854 2.3533728 4.30858 5.621611
3.9484456 5.7693734 3.0504475 6.3702226 2.4254253 4.4651294 4.6135416 9.206372
4.4029922 2.8024194 6.948939 5.3268433 2.6402674 3.2189467 3.5370712 7.440869
5.949434 4.622087 4.7980447 5.4279685 7.270368 3.9509544 7.2215986 2.7254443
7.892717 5.017655 4.3925705 6.2722516 6.7447133 5.0506716 1.1687424 4.202718
5.0842624 3.7369041 4.5583754 4.795877 4.139918 6.8441005 2.8924646 5.6015444
3.3802996 6.6372633 4.335582 3.1518996 3.4448564 4.000197 9.830462 4.822505

conv3.weight f4 [128, 64, 3, 3]
00000000: 7151 5ebd 7cc7 0bbd a4c0 3cbc ac6b 10ba
00000010: 2291 1b3d f82b aa3c 7672 ebbc 8286 db3c
00000020: 1762 75bc 2613 523d 36c2 a63d 5b79 a13d
00000030: ced2 7c3c 865d 3c3d 9240 813d 7613 353d
00000040: d0fa a53d 8112 933d 5a0a d83c 20a3 b7ba
00000050: cdf1 0b3c 5dd6 dbb8 900d a8bc 7898 8bbc
00000060: 389f 5ebd 706b 8abc 9f06 3cbc 180d e0bb
00000070: 42b3 5bbd 34d9 cf3c 55b4 153d 0e51 1abd
00000080: ed12 533c 3044 dfb9 dc69 9d3b 9d5b 81bd
00000090: 39b1 d93b 8503 833d b2c7 d9b9 7856 fdb7
000000a0: a755 63bc 608c efbb a030 ec3b bcd4 1e3d
000000b0: 1c96 473b 315e 23bc 67ee 99ba 98c3 02bc
000000c0: e6dc 263d bbdc 623b 2819 95bc d6e3 be3b
000000d0: 1aea 133c 1f0d c13c 4e21 03bd 3bc3 0eb9
000000e0: e172 16bc 81fd ea39 256f 8e3c 4a49 e0bc
000000f0: baff a2bc bf5c 91bc b8f3 973c d95d f33b
00000100: aa4f 283c 1e09 f53c e350 4b3b 36a2 193d
00000110: 54ca ffbc b2f8 233d 4503 e03c 1810 993c
00000120: 70cb e3bb a085 5abd 831c 37bd b704 53bd
00000130: aad0 77bc 335c 5bbd 44a7 aebc 78ab 32bd
00000140: 25a0 a7bb 8770 f4ba 5ae9 48bd ddd6 8ebd
00000150: b72f f0bc 5422 193b 5501 b1bc 9aa1 87bc
00000160: 6bee 57bc bc64 4abd 4a0e 0d3d 46c1 153d
00000170: e1a6 e03c 2b9f 4c3b 2cf9 5f3d 0d55 133d
00000180: f70e 893d a0e8 ae3d 9906 1d3d a908 babc
00000190: 2344 82bd 5198 c6bc 3830 00bd c35f 22bc
000001a0: 8a41 78bc cd7d 65bd bee2 2eba ef12 0c3c
000001b0: f18d 483c b2b1 20bc 009b 2b3c 4a84 adbc
000001c0: 27af 64bd 36fe 233c 2b59 2ebd c85b bebb
000001d0: 1c1e 9bbc d74b 94bc 2e1b 483d a2f2 603c
000001e0: 25a6 c8bc 2d91 b23c 353f 313d a792 593c
000001f0: 964e c7b9 3402 c23b 8cb7 7abc a399 cebc
00000200: 9232 033d 7a06 84bc 4e19 dc3b 405c 17ba
00000210: 8245 f138 c7da 79bc 4b90 933c c59a 00bd
00000220: 6163 ccbc 6cb6 0dbd 648c 673c 7ddd a6bc
00000230: c1e0 92bc 0503 55ba e984 963c b314 7cbd
00000240: 1b8e 153d 6597 703c 8006 193d 6728 be3c
00000250: 7b7d 4f3c 66f5 24bc 638e 383d df4b 273d
00000260: 095a 1e3d ad24 c13c bb1e ba3b e180 833b
00000270: d935 e73c 7146 103d 5637 3e3c bd94 22bd
00000280: b1e0 ff3c 87bd bfbc 9d00 abbc aa63 1abd
00000290: 85c9 a8bc ef8e 3a3d 7566 0a3d 6a78 aabc
000002a0: 546d ec3b e71c b33b 8b97 bfbc 590d 5bbc
000002b0: 7828 4b3b 63b7 a03c ea50 7d3c c78f 0e3d
000002c0: 2ddd ef3c 9111 3abd dde1 d9bc 7e20 2b3b
000002d0: 5dc9 3a3c e57e 0fbd a64b 873b 702e 7bbd
000002e0: 96d3 55bd 5f05 03bd 6a19 0abd 7b29 283b
000002f0: 17f3 b1bb 8202 053c 573e fabb 3294 28bb
00000300: 90ea 873c 824e 81bb 2c8a 60bc 1957 65bd
00000310: b22a c33b 2e7e 12bd 379e 91bc e456 4cbd
00000320: 0128 40bd 781c 69bd ce51 483c e2fc e23b
00000330: 30b1 03bd 1beb 49bd 1228 bcbc ef3f 963d
00000340: e306 283d edfa 883d 348c b23c 8276 1e3c
00000350: 0460 f93b a89f b43d f26a 9f3d 304c 8b3d
00000360: 0d35 553d 3bee 813d be57 013c c54e 3d3d
00000370: 3580 023d d02a a8bc 617a 8b3d 312f 943d
00000380: 440f 823d f825 913d 1c6f f23c 16b7 86ba
00000390: 643e ae3d e545 873d 3bef a3bb df71 883c
000003a0: 663f 8c3d 01fb 3c3d 7360 aabc bec9 3d3d
000003b0: ac94 00bb 3e30 bdbc 24a6 11bc 49ad 0cbc
000003c0: 06dc 99bb dd0c 073d 97f3 dd3c 3cb3 ddbc
000003d0: deb1 01bd d1b7 993b 3872 043d 4046 a43c
000003e0: b827 10bc 97c1 07bd b130 deba a908 6d3c
000003f0: 6b7b d8bc 17c6 25bd 2e61 103b 1670 13bc
-0.054276887 -0.03412579 -0.0115205385 -0.00055092084 0.037980206 0.020772919 -0.028741103 0.026797537
-0.014977 0.051287793 0.081425115 0.07884475 0.015431119 0.04598763 0.06311144 0.044208013
0.08104479 0.07181264 0.026372124 -0.0014010407 0.0085415365 -0.00010482662 -0.02051428 -0.017040476
-0.05435106 -0.016896933 -0.011476188 -0.0068374984 -0.05363775 0.025372125 0.03654893 -0.037674956
0.01288293 -0.00042584678 0.004803879 -0.06316302 0.006643441 0.06397156 -0.0004153825 -3.0200215e-05
-0.013875402 -0.007310435 0.007207945 0.038777098 0.0030454462 -0.009971187 -0.0011744023 -0.0079812035
0.04073801 0.003461643 -0.018200472 0.0058255 0.009027982 0.023565827 -0.032014184 -0.00013614904
-0.009182663 0.00044820833 0.017386982 -0.027378697 -0.01989733 -0.01774442 0.018548831 0.007426959
0.0102729 0.029911574 0.0031023554 0.037508212 -0.031224407 0.040032096 0.027345309 0.018684432
-0.006951742 -0.05335009 -0.044704925 -0.05151817 -0.015125433 -0.053554725 -0.021319993 -0.043620557
-0.0051155263 -0.0018649258 -0.049050666 -0.06974576 -0.029319627 0.0023366408 -0.02160708 -0.01655655
-0.013179402 -0.049412474 0.034437455 0.036561273 0.027423324 0.0031222801 0.05468099 0.035969783
0.066923074 0.085404634 0.03833637 -0.022709208 -0.06360652 -0.024242552 -0.031295985 -0.009910527
-0.0151523445 -0.056028176 -0.00066713605 0.008549436 0.012240873 -0.009807991 0.010473967 -0.021181244
-0.0558311 0.010009339 -0.042565506 -0.005809281 -0.018935256 -0.01810257 0.048854046 0.013729723
-0.024493286 0.02179774 0.04327317 0.013279594 -0.0003801479 0.005920673 -0.01530255 -0.025219744
0.03203065 -0.01611637 0.0067168837 -0.0005773939 0.00011504722 -0.0152499145 0.01801314 -0.0313976
-0.024949731 -0.0345978 0.014132593 -0.020369286 -0.017929437 -0.0008125755 0.018373923 -0.061543178
0.036512475 0.014684533 0.037359715 0.023212625 0.012664194 -0.010068273 0.045057666 0.04084384
0.038660083 0.023577059 0.005679933 0.0040131663 0.028223919 0.03522343 0.011609873 -0.03969263
0.03123507 -0.023405803 -0.020874316 -0.037692703 -0.020603905 0.04554647 0.033789117 -0.020809371
0.0072151814 0.005466092 -0.023387691 -0.013369882 0.0030999463 0.019618696 0.015461186 0.034805086
0.02928027 -0.04542691 -0.026596958 0.0026111896 0.011400548 -0.035033125 0.004128891 -0.061323583
-0.052203737 -0.031987544 -0.033715643 0.002565949 -0.00543059 0.008118274 -0.007636826 -0.0025723097
0.01659134 -0.0039461264 -0.013704818 -0.055991266 0.0059560174 -0.035764866 -0.017775638 -0.049887553
-0.04691315 -0.056911916 0.012226535 0.0069271186 -0.0321514 -0.04929648 -0.022968326 0.07336413
0.041022193 0.06688485 0.02179537 0.009671809 0.007610323 0.088195145 0.0778407 0.06801641
0.052052546 0.06344267 0.0078944545 0.0462177 0.03186055 -0.020528227 0.06810451 0.072355635
0.06350568 0.0708732 0.029593997 -0.0010277953 0.08507994 0.06605128 -0.0050028837 0.01665586
0.0684803 0.046137813 -0.020797944 0.046334974 -0.0019619865 -0.023094293 -0.008889709 -0.008586236
-0.0046954183 0.03297125 0.027093692 -0.027063005 -0.031663768 0.004691102 0.03233549 0.020053029
-0.008798532 -0.033143606 -0.0016951767 0.014467397 -0.026426038 -0.040472116 0.002203058 -0.008998891

conv3.bias f4 [128]
00000000: 8937 9cbc a215 04bd cf0d 043a 97a8 8abc
00000010: e5b9 1fbd 7960 8b3c 6066 253c 58db 97bc
00000020: 0ab6 d6bc 4834 993c b7d4 1abd e1ea 13bd
00000030: 9481 d93c 2e09 593c 82be 21bd dd45 133d
00000040: a0fc 7e3c f9f5 ac3b 7dd4 153d 96a5 173d
00000050: dd34 10bd 0f42 dfbc fb88 783c c93e 243d
00000060: c57f dfbc a6ea 4b3a 6ac4 003d 9211 823c
00000070: ca84 9f3b ffc3 143b c552 343c a9b8 13bc
00000080: 88a6 24bd 8027 3a3c 2e19 193d 84e0 95bc
00000090: 391c 98bc 181f 923c 9c7e 2f3c 2c70 07bd
000000a0: 864e 133d 7d01 de3c c3ea c93c c844 14bd
000000b0: af9b febc 7aae 3ebc 4f35 21bc e5f2 983b
000000c0: 8a1b 213d f579 32bc 1dec 00bd 2378 b63c
000000d0: 1bfa 9abc ed1a dbbc d8a0 11bd b50d 273d
000000e0: 751a ff3c 0884 303c 941d 6cbc d3d6 753c
000000f0: 38d8 f13b da8d 5d3b 3358 9f3c 7966 8fbc
00000100: 5e29 a2bc a81f bdbc db0d a2bc 707d aabc
00000110: 9d17 d9bb 60af ae3c e23e f03c 8be3 af3c
00000120: 0c07 d63c 5c9a ef3b 0998 08bc dcc9 3cbc
00000130: 5f60 fb3c 0fd0 0a3d e5d7 5ebc 3fd0 27bd
00000140: 6720 28bd 0915 80bc c702 d13b 1a13 933c
00000150: 1038 cb3c 883a 813a ce2d ffba e3a1 fe3c
00000160: e127 423c b5c7 063d bdc3 893c 5a01 d1bc
00000170: 80e7 27bd e197 063d f2c3 1abd 6f84 c43b
00000180: 00b2 b3bb 6a9b 0cbd fbaf ebbb 75a8 253d
00000190: ac34 133d 6b89 933b ff7d c0ba 62ba 51bc
000001a0: 3f5b 6b3c e606 b8bb 2cad 103d 70e6 8cbb
000001b0: 885e ddba e514 70bb 0960 cd3c 1fc6 e23b
000001c0: a7fe fd3c abd4 88bc efba 003d 6827 e93b
000001d0: 2e58 523c 0c20 733c be0d 283c e1ae 263d
000001e0: 4ef1 cdba 800d f33c 877f 1d3d f91d c4bc
000001f0: fac6 6ebc 9a53 473c 8131 1f3d fa7d f13c
-0.01906945 -0.032247193 0.0005037458 -0.016926093 -0.038995642 0.017013775 0.010095209 -0.018537208
-0.02620985 0.018701687 -0.037800517 -0.03611267 0.026551045 0.0132468175 -0.039488323 0.0359553
0.01556316 0.0052783457 0.036579598 0.03702315 -0.035206664 -0.027253179 0.015169377 0.04009894
-0.027282605 0.0007778801 0.031437315 0.015877519 0.0048681246 0.002269983 0.011006062 -0.009016194
-0.04019788 0.011361957 0.03737753 -0.018295534 -0.018568145 0.017837092 0.010711338 -0.03306596
0.035963558 0.027100319 0.024648076 -0.036198407 -0.031080095 -0.011638278 -0.00983937 0.004667627
0.039332904 -0.010893335 -0.031475175 0.022274083 -0.018918088 -0.026746238 -0.035553783 0.040784556
0.031140545 0.010773666 -0.014411349 0.015004831 0.0073805116 0.0033806474 0.019451236 -0.017504917
-0.019795116 -0.023086384 -0.019781997 -0.020811766 -0.0066251294 0.02132386 0.02932686 0.021470806
0.026126407 0.0073121022 -0.008337029 -0.011522736 0.030685602 0.033889826 -0.013601278 -0.040970083
-0.041046526 -0.01563503 0.006378505 0.017953444 0.024807006 0.0009859363 -0.0019468607 0.031083053
0.011850328 0.0329053 0.016816968 -0.02551334 -0.04099226 0.032859687 -0.037784524 0.0059972326
-0.0054838657 -0.034327902 -0.0071926094 0.040443856 0.035938904 0.0045024655 -0.0014685987 -0.012800785
0.0143650165 -0.0056160567 0.0353214 -0.004299931 -0.0016889134 -0.0036633548 0.025070207 0.0069205905
0.031005217 -0.01670297 0.031428274 0.0071152933 0.0128384065 0.014839184 0.010257183 0.04069412
-0.0015712173 0.029669523 0.038451698 -0.023940073 -0.014573807 0.012165928 0.03886557 0.029479016

bn3.weight f4 [128]
00000000: be79 833f f936 7e3f 5691 823f 0521 823f
00000010: a32f 863f 0f62 853f 0e00 853f 8412 8f3f
00000020: 1897 813f 5d68 8a3f 9e6a 873f 9340 843f
00000030: b580 8b3f f2b9 823f 86d6 903f b616 813f
00000040: 5c14 843f 272f 8e3f 9659 8f3f b01a 843f
00000050: 4dea 803f cdee 923f 31c9 8c3f 165e 8b3f
00000060: 864a 843f d647 843f c9f7 853f 18dc 893f
00000070: 4df8 893f 8248 873f 9bd8 8d3f e8ec 833f
00000080: 8a98 8c3f 7c3b 833f f411 7d3f 3eef 8b3f
00000090: bb30 833f 7374 843f 710b 813f e323 823f
000000a0: e9c0 843f 539e 853f 47d6 833f 3b65 843f
000000b0: 4de8 883f 17bb 883f 5996 893f 29ff 833f
000000c0: ba2f 843f 7689 863f a1e2 893f a1c6 863f
000000d0: e5f8 843f e40c 863f 0e55 843f 63f0 893f
000000e0: 3ac4 8c3f 2fce 893f f605 873f 1f76 843f
000000f0: f709 843f f958 8b3f e092 8d3f 9206 853f
00000100: eefb 8a3f e453 843f 6e55 8b3f 38d5 893f
00000110: b33c 853f 2558 843f 2e5d 8b3f 1d6f 833f
00000120: 04b4 783f c92c 833f f9a9 8b3f 60f2 873f
00000130: ba4f 833f 0f67 8c3f 7c66 863f eac6 813f
00000140: 5534 8a3f 4f91 843f f6d5 8a3f 878f 843f
00000150: 2929 8b3f 8b53 823f 2575 833f 93a6 833f
00000160: 896e 853f 04c8 853f c53f 843f 85d7 8e3f
00000170: ddb6 903f f03c 793f 6f83 803f a447 8a3f
00000180: 4c35 8a3f 39e2 803f dad7 893f 911a 8b3f
00000190: 8fc2 823f d421 843f d407 883f a77b 873f
000001a0: 849a 883f 3740 823f a628 7f3f 7dc6 823f
000001b0: 8af2 823f 1e2e 843f 2804 853f 1f7d 833f
000001c0: c6d8 853f 7aae 873f b8f5 8b3f 25fb 873f
000001d0: fec7 893f ad7e 883f 732f 8d3f e244 803f
000001e0: 2ddf 8c3f 8307 863f 5d99 8b3f 819b 823f
000001f0: 16b8 8a3f 108c 833f 8328 803f d591 8d3f
1.0271528 0.9930263 1.0200603 1.0166327 1.0483288 1.042055 1.0390642 1.1177526
1.0124235 1.0813099 1.0579412 1.0332206 1.0898653 1.0212996 1.1315467 1.0085056
1.0318713 1.110814 1.1199214 1.0320644 1.0071503 1.1479126 1.0998899 1.0888088
1.0335243 1.0334423 1.0466243 1.0770292 1.07789 1.0569003 1.1081728 1.0306673
1.0984051 1.0252528 0.9885552 1.0932386 1.0249246 1.0348037 1.0081617 1.0167202
1.0371372 1.0438942 1.0299767 1.0343393 1.0695893 1.0682095 1.0749007 1.0312244
1.0327065 1.05107 1.0772287 1.0529367 1.0388457 1.0472684 1.0338457 1.0776485
1.0997384 1.0766047 1.0548694 1.0348548 1.0315541 1.0886527 1.1060448 1.039263
1.0858133 1.0338101 1.0885446 1.0768194 1.0409149 1.03394 1.0887811 1.0268284
0.9714968 1.0248042 1.0911247 1.0620842 1.0258706 1.0968951 1.0500026 1.0138829
1.079722 1.0356845 1.0846546 1.0356301 1.0871936 1.0181745 1.0270125 1.028521
1.0424358 1.0451665 1.0331961 1.1159521 1.1305805 0.9735861 1.004011 1.0803113
1.0797515 1.0069038 1.0768998 1.0867482 1.0215625 1.0322824 1.0627389 1.0584611
1.0672154 1.0175847 0.996714 1.0216824 1.0230267 1.0326574 1.0391893 1.0272559
1.0456779 1.0600121 1.0934362 1.0623518 1.0764158 1.0663658 1.1030105 1.0021021
1.1005608 1.0471042 1.0906178 1.0203706 1.0837429 1.0277119 1.0012363 1.106013

bn3.bias f4 [128]
00000000: d518 623d 0a12 2d3d 863b 673d c460 5c3d
00000010: b92f 963d 884e 8a3d 391b 803d fcc9 953d
00000020: 7fc7 203d 0ba6 783d c6cd 2b3d aeb7 533d
00000030: de74 6e3d 180b 3a3d 886f 843d 791a 303d
00000040: 8de4 5b3d b7d8 333d de14 723d 40a0 643d
00000050: e1fe 1a3d 0784 993d e6a2 8d3d fa18 fe3c
00000060: 2ab6 833d 2ce4 763d 9ff4 8d3d b090 413d
00000070: 4ef7 3c3d 62e9 3d3d 7026 753d b1f1 c13a
00000080: d084 763d a9c0 573d 29c8 bb3c 6758 5d3d
00000090: bf6c 333d 5510 823d 85c4 103d 924b 273d
000000a0: 5052 843d 28eb 1ab9 74bc 6b3d f0b6 6a3d
000000b0: 200a 503d 89bc 3c3d 1d5c 403d 8fe0 6f3d
000000c0: d24d 6e3d 9af7 8d3d 58b9 553d a5e5 113d
000000d0: d8e7 833d a32d 2a3c 7dff 6e3d 5c12 393d
000000e0: a73f 5a3d 5fa4 6c3d b389 343d 05d1 f8ba
000000f0: 869d 523d f486 6c3d c575 853d 7e4a 8d3d
00000100: bb25 663d 56d9 7e3d b841 3f3d 3706 583d
00000110: 4d1b 8a3d ba80 803d 3a48 633d 7641 593d
00000120: 7d63 823b 8827 553d 2924 463d 5289 433d
00000130: 6688 6a3d 1327 853d 733a 973d 119e 263d
00000140: ef02 423d a35d 823d 32a6 393d ade1 773d
00000150: f49d 323d 096e 473d 1cf6 623d e8b9 6d3d
00000160: d0c0 833d 211b 883d 9178 613d 2dca 823d
00000170: 9180 8f3d f22e 913c a04f 1f3d 53a9 3e3d
00000180: e484 713d 0d9a 1f3d acd4 7d3d 1600 6b3d
00000190: c702 213d 48c1 7b3d 698e 3c3d e358 313d
000001a0: 1f13 3b3d 5487 493d 9a52 9e3c e17d 513d
000001b0: 028d 473d 3b85 813d d910 823d 75c4 673d
000001c0: 9701 3b3d 7ab3 3f3d 82d7 673d ff2e 4f3d
000001d0: ee7d a73c 1c50 6c3d 4c8e 693d 37f5 de3a
000001e0: 3867 823d 6fa7 173d 6bc8 1a3d 423c 4e3d
000001f0: ef7d 713d 1858 743d 6589 063d 73cb 563d
0.055199463 0.04225353 0.05645325 0.05380322 0.07333321 0.0675326 0.06255192 0.07313916
0.039252754 0.060705226 0.041944288 0.051688842 0.058216922 0.045420736 0.064665854 0.042993996
0.05368476 0.043907847 0.05910193 0.05581689 0.037840728 0.07495885 0.06915836 0.03101777
0.064312294 0.060276195 0.069314234 0.047257125 0.046134286 0.04636515 0.05985111 0.0014796761
0.060185254 0.05267397 0.022922592 0.054039385 0.04380488 0.06350771 0.035343666 0.040843554
0.06461012 -0.00014774187 0.05755277 0.05730337 0.050790906 0.04607824 0.046962846 0.058563765
0.058179684 0.06931992 0.05217871 0.035619397 0.06440705 0.010386857 0.05834912 0.045183524
0.05328336 0.057773944 0.044076633 -0.0018983191 0.051419757 0.05774589 0.065166034 0.06898974
0.056188326 0.062218986 0.046693534 0.052740302 0.067434885 0.06274553 0.055488802 0.053040944
0.003979145 0.052039653 0.04837433 0.04773838 0.057258986 0.065015934 0.07384195 0.040678088
0.04736608 0.06365516 0.04532451 0.060517956 0.043607667 0.048688922 0.05541049 0.058038622
0.064332604 0.066457994 0.05504662 0.06386218 0.07006944 0.01772258 0.038894296 0.0465482
0.058964625 0.038965274 0.061970398 0.05737313 0.03930929 0.061463624 0.04603425 0.04329766
0.045672532 0.049201325 0.019326497 0.051145438 0.04871846 0.0632424 0.0635087 0.05658384
0.045655813 0.04680202 0.05660201 0.05058193 0.02044579 0.057693586 0.05702047 0.0017010336
0.06367344 0.03702491 0.03778879 0.050350435 0.05895799 0.059654325 0.032845873 0.052440118

bn3.running_mean f4 [128]
00000000: 0ff4 19bf a79d a23e bf98 2bbf e040 d3be
00000010: ba90 c73e 2acb 5bbf 13a6 39be 6983 0140
00000020: 0ce8 403f df1d 993f eb8d 7a3f 1262 ccbe
00000030: 9a8f bf3f 6f4a 95be 082b 1a40 0dd8 9f3e
00000040: 7846 a43e 551f e63f 8e94 0e40 8542 e9be
00000050: b61b d23e 3458 4140 6598 c53f 1caa 3940
00000060: 00b6 acbf 5b38 a53d 8d02 0d3f a2bd a83f
00000070: 46c0 f93f c129 9a3f 3ea0 cf3f 68f5 ba3f
00000080: a0c6 e33f c0a2 47bf 1c53 1fbe d454 3640
00000090: 695b a4bf ea20 4dbe 3027 8cbf 49ce 4dbf
000000a0: 4a31 f9be d3f8 2740 a2c3 10bf 43fb a5be
000000b0: 2ed7 a53f 7b04 d33f 4bb9 a43f a03b c7be
000000c0: b668 d1be 82d6 d23e 151f b83f c973 b53f
000000d0: 8987 a7bf bd42 ae3f 3163 b6be 63c8 a53f
000000e0: c930 bd3f 720f f53f 8fcc 9d3f b312 b93f
000000f0: 17dc 95be eb07 e63f 6647 0f40 ea47 d8be
00000100: 73f1 b43f 5c86 eabe 264e e93f b43b 993f
00000110: f620 0dbf ee05 30bf aa67 e53f 9a33 1e3d
00000120: f758 4cbe 179b 34bd 4d43 8f3f 4ef9 c23f
00000130: 512f 88be a68b c83f 6b00 8cbf 7837 a2bc
00000140: 6fa3 0940 6a9f 8abf 1792 c63f 0722 cfbd
00000150: 3427 0040 3d1f a8bf 19fa 683e e5c2 cbbc
00000160: cf22 273e 58be 843d 39a0 2b3e a4a5 0440
00000170: 57b1 a13f 3254 083f 1e4b 423d 86a1 d53f
00000180: f658 8e3f 4458 403d 721b 9f3f c272 ff3f
00000190: 88ad 2bbe 5049 a5be b9f8 933f f786 b23f
000001a0: 47b4 e43f 7658 1dbf 5d7f 66bf 2e0a ee3d
000001b0: dc3a b03e 8baf c7be 3272 15bc 9aee 103e
000001c0: de93 793f 0324 b53f b85a bb3f ecee 763f
000001d0: 3b67 aa3f 9004 703f cf58 0240 734a a83f
000001e0: 2057 9f3f 703a 9d3f 73c6 1140 6bea 69be
000001f0: d4b2 f83f 131e 2d3e fe92 55be bee0 2d40
-0.6013803 0.31760904 -0.6702995 -0.41260433 0.38977605 -0.8585688 -0.18129759 2.0236456
0.75354075 1.1962241 0.978728 -0.39918572 1.4965699 -0.2915835 2.4088764 0.3121952
0.32085013 1.7978312 2.227817 -0.45558563 0.41036767 3.0210085 1.5437132 2.9010077
-1.3493042 0.080673896 0.5508202 1.3182871 1.9511802 1.2043992 1.6220777 1.4606142
1.779499 -0.7798271 -0.15559047 2.8489275 -1.2840396 -0.20032087 -1.0949459 -0.8039289
-0.48670417 2.624562 -0.5654851 -0.3241826 1.2956293 1.6485742 1.2869047 -0.38912678
-0.409002 0.4117928 1.4384485 1.417596 -1.3088237 1.3614117 -0.35622552 1.2951778
1.4780513 1.9145339 1.2328051 1.4458832 -0.29269478 1.7971166 2.2387328 -0.42242366
1.4136184 -0.45805633 1.8226974 1.1971345 -0.5512842 -0.6875905 1.7922261 0.03862343
-0.19955812 -0.044093218 1.1192414 1.5232332 -0.265986 1.5667617 -1.0937628 -0.01980184
2.1506002 -1.0829899 1.5513333 -0.10113912 2.0023928 -1.3134533 0.22751655 -0.024873206
0.16321872 0.06481618 0.16760339 2.07261 1.2632245 0.5325347 0.04743492 1.6689918
1.1120899 0.046959177 1.2430251 1.9956896 -0.16765416 -0.32282495 1.1560279 1.3947438
1.7867516 -0.61463106 -0.9003809 0.11623035 0.34419906 -0.39001116 -0.009121465 0.1415352
0.9749125 1.4151615 1.463706 0.96458316 1.3312753 0.9375696 2.0366704 1.314772
1.2448463 1.2283459 2.2777374 -0.2284333 1.9429574 0.16906004 -0.20856854 2.7168422

bn3.running_var f4 [128]
00000000: 0651 6041 0001 f740 0d33 3441 b5a9 5341
00000010: c8ae 2141 b0e5 6f41 b2aa 0841 c96c 1a42
00000020: 2d48 8740 d7e1 0742 738a c841 c753 f240
00000030: 4a0d 0742 aaad 2041 3f71 0942 54ef d540
00000040: 14ec ba40 4675 d541 e077 0442 40fe 3d41
00000050: d94e 3c40 55b7 2942 cb0d b241 df8c 8a41
00000060: 6809 a141 50bb 1341 e09b ef40 2419 be41
00000070: 0c45 0a42 ed2b de41 c744 c841 2099 8b41
00000080: b7ee bb41 050f 4541 ed49 2841 1309 1d42
00000090: aef1 6141 4503 e140 5236 7441 68f4 4541
000000a0: ba53 8d41 7302 7541 3672 4c41 0b9a 5e41
000000b0: e5b4 b741 5c5e 4341 808d dc41 2a46 3641
000000c0: 97ee 6741 d829 d240 ac5a 0a42 0f29 e441
000000d0: a3ad 6941 6119 9d41 08bd 3241 89dd f241
000000e0: c910 0842 0d8c d641 2e7d c741 296f 9541
000000f0: ae4b f940 0b30 eb41 6145 0042 a0dd 8841
00000100: 3935 e141 c9de 5f41 c122 9a41 3345 dd41
00000110: 36bc 8d41 1294 8b41 842a de41 f676 6741
00000120: 1762 f540 d90f 2a41 a9c2 0442 d5d5 d841
00000130: ecd2 0541 5537 ad41 6eda 7b41 d79f 4241
00000140: 9e2e f541 b2f8 5441 0c3a d341 64e3 3a41
00000150: 27f4 fe41 5cb8 aa41 1726 e840 cde5 4c41
00000160: 08e9 fd40 ce1b 0741 a886 0241 9986 e041
00000170: c840 c441 3f93 c840 b1c3 5341 9d1a c641
00000180: 49eb fe41 8326 1f41 5d10 da41 a9d7 cd41
00000190: 5429 1041 c461 5541 6cb6 ec41 715c 0042
000001a0: ec72 e941 75f5 8841 7dd7 5b41 c589 dc40
000001b0: b3bb 0441 e03d 4141 2416 3741 0684 0a41
000001c0: 9597 0142 a9e2 eb41 326c b841 1448 0042
000001d0: f913 6c41 c2d4 f641 07d8 ac41 6913 3e40
000001e0: 64b1 c241 b6fa 0542 bcab 0142 169c cd40
000001f0: 9649 cd41 aef8 f440 27e0 2141 9196 2842
14.019781 7.718872 11.262464 13.228932 10.105171 14.993576 8.541674 38.606236
4.2275605 33.970547 25.067602 7.5727267 33.762978 10.042398 34.36059 6.685465
5.841318 26.682262 33.117065 11.874573 2.9423125 42.429035 22.256735 17.318785
20.129593 9.233231 7.4877777 23.762276 34.56743 27.771448 25.033583 17.449768
23.49156 12.316167 10.518048 39.25886 14.121504 7.031649 15.263262 12.3721695
17.665882 15.313098 12.777884 13.912608 22.963327 12.210537 27.569092 11.39213
14.495749 6.567608 34.588547 28.520048 14.604892 19.637392 11.17115 30.358171
34.01639 26.818384 24.936123 18.679277 7.7904882 29.398458 32.067753 17.108215
28.150988 13.991891 19.26697 27.658789 17.7169 17.4473 27.77076 14.466543
7.668224 10.628869 33.190098 27.10441 8.363995 21.652018 15.740828 12.164023
30.647762 13.310717 26.403343 11.680515 31.869215 21.34002 7.2546496 12.806104
7.934696 8.444288 8.157875 28.065722 24.531631 6.2679744 13.235276 24.762995
31.864885 9.946902 27.25799 25.730303 9.01009 13.336369 29.589073 32.090275
29.181114 17.119852 13.740109 6.8918176 8.295825 12.077606 11.442905 8.657232
32.39803 29.485674 23.05283 32.07039 14.754876 30.853886 21.605482 2.9699347
24.336617 33.494835 32.41771 6.4253035 25.66093 7.6553564 10.117225 42.147038
