ML/train_single_subject_myo_model_swing.pth (torch, 430676 bytes, 22 tensors)

conv1.weight f4 [32, 8, 5, 3]
00000000: 82f1 62bc 09c1 2ebd 0872 4c3d cc74 8e3d
00000010: 3c53 2e3d e569 c73d ed09 f03c 039c cdbb
00000020: d1c9 873d dec0 c53d 18a3 2c3d 69b6 9b3d
00000030: db1f 37bd f910 013d e42a 163e 4ca2 2bbd
00000040: d1fb 5c3d 7b93 35bb fa5e 2b3d 3434 303d
00000050: 7b43 8f3c e81b 113d b3bb 0a3e 965c 103e
00000060: 6e65 023e 4197 493d e953 fe3d 5e1f c53d
00000070: 5690 883d 5194 7d3d c5e4 993b ebab 953d
00000080: 9e93 2c3e 4afe ed3d b6c9 eb3d 5f36 f83c
00000090: 2048 293e abb1 8c3c 1657 c33d 81ee 2f3e
000000a0: 939b 833d 2aa6 083e 269f 653d 9427 a9bc
000000b0: 4c6c 1f3d d871 3a3d bd20 89bd 9ed8 28bd
000000c0: 6ff3 5a3d 29f6 bd3c 4999 713c 1dcf 9bbc
000000d0: 5236 69bb 7a85 6c3c 0f13 86bd 8765 6cbc
000000e0: 2ec2 2cbd f184 5dbd b550 4cbd a8ce f6bd
000000f0: 9193 0e3e 7630 e83d 686c bc3d 77d4 bf3d
00000100: db2a 173e 23a0 ac3c 816f 173d d830 83bc
00000110: 2f7e c83c b795 2c3e 4c1e 43bd 2142 17bd
00000120: 85ee 793d 7f29 8dbb 318a d5bd e15a 5c3d
00000130: 4a3c 413d 5c5f 13bd e821 383d 1818 fc3c
00000140: 2dc1 e53d a769 98bc e379 553c 9ed8 a23d
00000150: d8b1 15bc ef64 c4bb 1890 cd3d c6ad 633d
00000160: 8a54 3ebd 741b cabc 948b abbc e6cb ce3d
00000170: 0618 23bd 5b89 cb3d 9c78 1abb c0a5 0339
00000180: 1f7a a33c 1cc4 943d 02c1 993d 9059 803d
00000190: 7ca7 613d 1a0b 9e3d 4dc4 5e3b 36d0 97bd
000001a0: d512 b03d d7b8 383d 1b88 47bb 1eb3 97bd
000001b0: ba12 9cbb 1af2 693d 8fcf ae3d cec0 38bd
000001c0: c730 c3bd d8fd 50bb 2fcc 11bd 406b 8ebb
000001d0: 69a5 083e 69e5 0abd 1c88 26bd bc95 303d
000001e0: a861 963d e2ca 783d 0a03 a7bc ff48 3f3c
000001f0: 5750 8fbc 8a13 d83c d10a bf3d 107c 843b
00000200: f717 333d 6172 123e 69bc e33d 7395 6e3c
00000210: ebe3 bd3d 7b4f 953b dc12 b23d ead9 f43d
00000220: 4694 f0bc dfc9 4f3d 273e dd3c dc70 d33d
00000230: bfb8 293d 2939 ff3d 58d7 003e 7651 033e
00000240: 6122 863d db4f 9f3c 9482 3e3d 2c7c cc3d
00000250: 3ea9 5d3d d211 1f3e 549d 6b3d dc5e 5d3d
00000260: 79e3 e73b d300 5ebc 4d7d 983d a337 0e3e
00000270: 5582 283d d8bc db3d 8f2f b73d ed98 fb3d
00000280: e3b6 f73b 9f79 ddb7 1db6 213e 06eb 213e
00000290: 4cbf cb3d c3fd f3bd 7825 0f3d 489f d53c
000002a0: c564 01ba 4679 93bd f3b7 dabc 3cff 53bd
000002b0: d75e ccbc c683 aebd 41e4 09bd 1b80 8cbd
000002c0: 7866 4ebd 5bf7 343d 28ff dbbd 15c3 c5bd
000002d0: 4689 88bc ad80 663c 4a2b 12bd 3b2f d63c
000002e0: 8e5e eb3c f4d2 7b3d 8fcf 203e 8da5 203c
000002f0: 0e42 bd3d 0c5e 383e 696f 823d 09fd 81bd
00000300: 8c86 a93c 24bf b2bc 6f06 aabd 8fea 64bd
00000310: 6bca 1a3d d79d 873d 6de6 88bd 0ddb 66bd
00000320: 3c80 1a3d acfa ac3d 3223 863d be44 a93d
00000330: a719 ef3d 388f a53c d7e2 9a3d fe16 7abb
00000340: 4242 ae3c 094b cebc 3a9c 7cbd 722b 953d
00000350: 5494 3dbd 2bd3 de3d 232d f4bc 6055 a5bc
00000360: 0733 d73d 758b a0bd 0212 523d 39cb f23d
00000370: d933 46bd 089b 1abd 9122 ef3d 54de 34bc
00000380: 85aa af3d d683 133d 7ac3 9fbd 3f39 133d
00000390: 437f 5fbd 7258 963d 50ee 013d 7a6a 1a3d
000003a0: 46e7 643d 4c8c 593d d7c2 1039 4781 8dbd
000003b0: f461 52bd 3ddc c13b ec32 a63c 6a0f 59bd
000003c0: fb13 c43d 11c3 feba ba6b 8fbd f5be f9bc
000003d0: 44fc 55bd c88a 613c 1661 833c 6037 a43b
000003e0: c12f 873d 2aa4 013e 5c05 92bd 25f5 a4bd
000003f0: 6b46 463d ff83 22bd d7fa 163d f10d e63c
-0.013851525 -0.04266456 0.049913436 0.06955871 0.042559847 0.09736995 0.029301608 -0.0062747016
0.0663029 0.09655927 0.042147726 0.07603151 -0.044708114 0.031510327 0.14664799 -0.041902825
0.05395109 -0.0027706313 0.041838624 0.043018535 0.017488232 0.035427004 0.13548164 0.14097819
0.12734005 0.049216513 0.12418348 0.096251234 0.06668155 0.061909024 0.004696461 0.073081814
0.16853186 0.116207674 0.11513083 0.030299364 0.1653142 0.017174562 0.09538095 0.17180826
0.06426158 0.13344637 0.05605998 -0.020648755 0.03892164 0.045518726 -0.066956975 -0.041222207
0.053454813 0.023188667 0.014746019 -0.019019658 -0.0035585356 0.01443612 -0.06546604 -0.014428503
-0.04217737 -0.05408186 -0.049881656 -0.12051135 0.1392348 0.11337368 0.09200364 0.09366696
0.14762442 0.021072453 0.036971573 -0.016014501 0.024474232 0.16853987 -0.047636315 -0.0369283
0.061018486 -0.0043079252 -0.104267485 0.053797606 0.047176637 -0.035979614 0.04495421 0.030773208
0.11218486 -0.018605066 0.013029548 0.07951473 -0.00913664 -0.0059934775 0.10037249 0.055585645
-0.04646734 -0.024671294 -0.02094058 0.10097484 -0.039817832 0.09938308 -0.0023570424 0.0001255488
0.019955693 0.072639674 0.075075164 0.06267083 0.055091366 0.07716961 0.0033991516 -0.0741276
0.08597342 0.045098152 -0.0030446115 -0.07407211 -0.0047629746 0.05711565 0.085356824 -0.045105748
-0.09530788 -0.0031889584 -0.035595115 -0.0043462813 0.13344349 -0.03391019 -0.040657148 0.043111548
0.07342845 0.06074036 -0.020387191 0.0116751185 -0.017494364 0.026376504 0.09328235 0.0040431097
0.043724027 0.14301445 0.11119921 0.014561999 0.092719875 0.004556594 0.086950034 0.11955626
-0.029367577 0.05072963 0.027007176 0.103242606 0.041435953 0.12462074 0.12582147 0.12824044
0.06549526 0.019447258 0.046511248 0.099846214 0.05411648 0.15534142 0.057523087 0.054045543
0.0070766774 -0.013550001 0.07445774 0.13888411 0.04113992 0.107293785 0.08944618 0.12285028
0.0075596436 -2.6401887e-05 0.15792127 0.1581231 0.09948596 -0.119136356 0.034947842 0.026076928
-0.00049359753 -0.072008654 -0.026699042 -0.051757082 -0.024947567 -0.085212275 -0.033664946 -0.06860372
-0.05039069 0.04418121 -0.107420266 -0.096563496 -0.01666702 0.014068765 -0.035685815 0.026145568
0.02873161 0.061480477 0.15704177 0.009805095 0.092411146 0.18004626 0.06368906 -0.06347091
0.02069404 -0.021819659 -0.08302008 -0.055887755 0.037790697 0.066219024 -0.06684575 -0.056361247
0.03771995 0.08446249 0.06549682 0.08265065 0.11674815 0.020209894 0.075627975 -0.0038160677
0.021271829 -0.025182264 -0.061672427 0.07283677 -0.046284035 0.10880121 -0.02980668 -0.020182312
0.105077796 -0.07839099 0.051286705 0.11855168 -0.04838929 -0.037745506 0.11676515 -0.011039335
0.08577446 0.0360144 -0.07800956 0.035943266 -0.054564726 0.07341088 0.031721413 0.0376992
0.055884622 0.053112313 0.00013805494 -0.06909423 -0.051362947 0.005916147 0.020287953 -0.052993216
0.095741235 -0.0019436796 -0.07002969 -0.030486563 -0.052242532 0.013765998 0.016037505 0.005011484
0.06600905 0.1266028 -0.071299285 -0.0805457 0.048407 -0.039676663 0.036860313 0.02808282

conv1.bias f4 [32]
00000000: 5f32 33bd 61ee 963d b88f 413d 6578 a4bd
00000010: fb88 a9bd 81fe f1bc a4af 8e3d 66c5 4a3d
00000020: 4c42 85bd f661 683c 721e 3bba 8826 a6bd
00000030: f9e2 9fbd 42fc 03bd b925 a3bc 83cf 9bbd
00000040: 7d2c 3b3c 0626 6d3c 1270 513c ff9b 1e3d
00000050: 293c 89bd cbff 17bd af88 9fbc 45f2 bc3d
00000060: 2cbf 563c b77a 7a3c 8402 8e3d eabf f8bb
00000070: fde2 9dbd 1abc 063c 0b8c 3f3d 9a55 853d
-0.04374921 0.07369686 0.0472562 -0.08030776 -0.0827808 -0.029540302 0.069670945 0.04950466
-0.06506786 0.014183512 -0.00071380206 -0.08112818 -0.078069635 -0.032222994 -0.019915449 -0.07607939
0.011424181 0.0144743975 0.012783067 0.03872299 -0.06700928 -0.037109178 -0.019474356 0.09225897
0.013107102 0.015288047 0.069340736 -0.0075912373 -0.0770931 0.008223558 0.046764415 0.06510468

bn1.weight f4 [32]
00000000: 8887 5a3f 2cfc 7d3f 6e76 663f 0093 793f
00000010: 969b 743f e24d 713f 009f 7b3f 5faf 703f
00000020: 7903 893f f7aa 873f 1709 7f3f a5ae 6d3f
00000030: 5ffe 7a3f 9345 823f 1e89 7c3f c52e 5e3f
00000040: 66e0 723f b76b 693f f1b7 8c3f abe2 883f
00000050: 2a60 753f 49c1 853f 50df 803f d999 7f3f
00000060: cf9f 8a3f f4de 833f 6665 7e3f 3040 823f
00000070: 6921 7a3f ef22 823f b0a3 863f eb65 753f
0.85363054 0.9921291 0.9002446 0.9748993 0.95549905 0.94259465 0.9828949 0.94017595
1.0704185 1.0599049 0.99623245 0.9284461 0.9804439 1.0177482 0.98646724 0.86790115
0.94873655 0.91179985 1.0993634 1.0694174 0.9584986 1.0449611 1.006815 0.9984413
1.083002 1.0302415 0.9937347 1.0175838 0.9770723 1.0166911 1.0518703 0.9585864

bn1.bias f4 [32]
00000000: 9990 e5bd bc10 aabc 1eba d3bc 474d 5ebd
00000010: 6989 9fbb 9b79 33bd 5906 a6bd 8543 05bd
00000020: ecc0 643d fec1 d2bd 8d84 52bd b6c9 103d
00000030: d895 073d 410e c6bc 6070 bbbc 096c a3bd
00000040: 5201 c1bb c784 81bd bfa5 acbd 3b60 8abd
00000050: 3841 48bd 9f08 1f3d 1c10 c7bd 5074 95bd
00000060: f51d 87bc 3611 90bd 90cd 08be 18f7 bebc
00000070: 4796 03be 8f57 f5bd d723 d3bb d4e3 25bd
-0.112092204 -0.020759933 -0.025845584 -0.054272916 -0.0048686755 -0.043817144 -0.081066795 -0.032535095
0.055848047 -0.10290907 -0.05139594 0.035348617 0.033101887 -0.024176719 -0.022880733 -0.079795904
-0.00589005 -0.063241534 -0.08430051 -0.06756636 -0.048890322 0.03882658 -0.097198695 -0.072975755
-0.016493777 -0.07034533 -0.13359666 -0.023311183 -0.12850295 -0.11979591 -0.0064434814 -0.040500477

bn1.running_mean f4 [32]
00000000: a2d2 e5bd 8f7a 9d3c 10ab 383b 0aca 15be
00000010: f565 f3bd 5090 afbd 34af 083e 1be7 be3c
00000020: 8385 19bd 45c2 c03c 5864 96bd fc2e 0abe
00000030: 5be4 5abd c719 aabc f5dc 38bd d2a4 30be
00000040: c03a 6b3d de12 c63c 1717 9b3c 2fa5 983d
00000050: 4f64 aabd 5940 463c 6fd3 6bbc dff2 b43d
00000060: ae76 8b3c b2ee 9ebc 656f 813d 8cad 2bbd
00000070: 97ca 4cbd d757 9c3c fcc4 cc3d 2872 453c
-0.11221816 0.01922348 0.0028178133 -0.14627853 -0.11884681 -0.08572447 0.13348085 0.023303559
-0.037480842 0.023530135 -0.07343358 -0.13494486 -0.053440433 -0.020764245 -0.045132596 -0.17250374
0.057429075 0.024178918 0.018931909 0.07453381 -0.083199136 0.012100303 -0.014393671 0.088353865
0.017024364 -0.019400928 0.06320075 -0.041913554 -0.049997892 0.019084854 0.09998509 0.012051143

bn1.running_var f4 [32]
00000000: 5889 c340 3e76 9a40 f337 3340 ae57 ec40
00000010: c2ee 2c40 2a01 b140 c690 4d40 0cdf b13f
00000020: 8623 e53f 6435 243f 9613 bb40 cb82 9a40
00000030: 91d8 f73f 85b8 a63f 146a 5440 fb54 2341
00000040: 286d 1340 84f8 3b3f 28d8 1f3f 789a c83f
00000050: 0e60 993f f49d 0140 253d 9a3f 24be db3f
00000060: 7abf 0440 7913 a33f 21b2 843f 35e8 1340
00000070: ce15 0b3f 0238 0c3f a539 4640 8f84 7c40
6.1105156 4.826934 2.8002899 7.385703 2.7020726 5.531392 3.2119613 1.3896194
1.7901466 0.6414397 5.846141 4.828466 1.9362966 1.3025061 3.3189745 10.208247
2.3035374 0.7342608 0.62439203 1.567214 1.1982439 2.0252657 1.204991 1.7167401
2.0741868 1.2740318 1.0366861 2.3110478 0.54330146 0.5477296 3.0972683 3.9455907

conv2.weight f4 [64, 32, 3, 3]
00000000: 0b15 58bd d152 44bd 8931 3e3b 3e18 61bd
00000010: 6565 573c defb 48bd 1ad4 e3bb cf51 1dbd
00000020: f5f4 78bd 9a44 2cbd b460 c5bd a4f9 e0bd
00000030: 69e2 d2bb 00e8 acbd 80bb dcbd 9a69 1e3c
00000040: f6b2 83bc 1278 a1bc 8096 93bc 7365 3fbd
00000050: d313 6cbd e70f a9bd c9c2 ef3c d582 7c3c
00000060: f532 6fbc 5367 963c e9f3 ab3c 43d3 c8bd
00000070: cbb2 e1bd be99 50bd 5285 cabc b85c 93bd
00000080: 21a5 debc d5e4 86bd e1c9 7c3b ba31 94bd
00000090: 747c 65bc 2bfb f3bb 4c8b 10be e457 1abd
000000a0: 9554 6c3b b9a9 96bd 157f d0bb 4093 8bbd
000000b0: b7ea a5bd 8d46 51bd 1693 efbd ae51 ccbd
000000c0: 07c7 93bc fafc c03b a62f 5e3b 8685 ebbc
000000d0: 897d 62bc e736 873c bb36 9d3d 33ba 823c
000000e0: 22f4 05bc 969c ab3d a8a0 843c 8d85 c23d
000000f0: 87bc e93d 3ceb 8b3d c020 aa3d da15 30bd
00000100: 173a 77bd 3747 a23c 07c0 573d f652 53bd
00000110: e05b db3b 9afe eebc 22d9 153d 800a 21bd
00000120: 7ab8 393d d678 a53d a53f 7d3d 03ad 57bc
00000130: 84be 993d b92c 053e 0b51 843d 94f8 783c
00000140: 5c90 2a3d 6c02 e0bd d9a0 b7ba d56c 253d
00000150: f36b f2bd 56e4 373c a988 953d 0814 0bba
00000160: 9bbc 323d d03f 043e fede ddbd 5db3 8abd
00000170: f3dd d93c 3134 a9bd 9e1d 01bd a3a9 b7bc
00000180: 4532 5cbc bec5 92bd 82d6 c6bc 9ce8 55bd
00000190: 2e37 adbd 599e 15be b969 35bd a21b b8bd
000001a0: 5f40 d5bd 1e26 51bc 3aa8 9ebd 2a8f a4bd
000001b0: 8a5a 04bd 0635 3abd 2a9f 623a 4604 3c3c
000001c0: 6483 653b ac4e 413c e82d c9bb 7a81 b5bd
000001d0: 6437 c8bc 7264 623d 1741 54bc 9400 8f3c
000001e0: 4b60 ec3d b02d 833d ceb8 733d 6087 313d
000001f0: 262a 853c d617 15bd 0118 7db9 ee03 babd
00000200: 5cec 4dbd bf70 76bc 6ef1 e8ba 7b02 80bd
00000210: 639a 3fbd ae54 adbd 1cb5 58bb d3dd b7bc
00000220: dc41 94bd 6864 46bd a92f 22bd c3fa e6bc
00000230: 7a50 1d3d 2e46 55bc 99d1 dbbd 86a0 dbbc
00000240: d6e4 0dbd dbf7 6b3d dbfb 943d 99f2 26bd
00000250: c0fe 12bd 09d9 9c3d 5336 babc 4dca c63d
00000260: ed1d 7e3c 8548 873d 3eee 8a37 2645 83bc
00000270: 86c6 753d 7ef5 97bc f1f1 85bc 1c5e 29b8
00000280: 9f01 8abd 1180 723d 7562 813d 8e9f 983d
00000290: 4ea5 81bd 9b75 f03d 2bd4 a43d 5201 86bd
000002a0: 0d00 283d 1f73 263d d522 963c 1a5a c2bb
000002b0: a9e4 e43d 640e ce3d df3f 7e3d 3f9b 303e
000002c0: 0373 043e d159 d73d f429 423e 62d9 b53d
000002d0: 048c 40bd 5310 813d 17f1 a1bc 77ce 68bd
000002e0: 9305 353d 214e a73c 9c82 a8bc 65db 663c
000002f0: eb49 253d 32fe 883d 1563 4e3d b6b4 ac3c
00000300: 578b 083d 2dc5 db3b a64a 8abd bee9 7d3d
00000310: f961 673d 7e0c 393d 944b 07be 5187 babd
00000320: b287 9b3b d37f d2bd 5300 acbd bf77 84bd
00000330: 8912 46bd a275 1bbd c3c0 95bd a8a2 203d
00000340: acc7 a33c ad1c 613d 1694 f93c 2b06 a13b
00000350: 1be1 11bc b4a1 863d cb97 8cbc 0230 993d
00000360: 2503 0c3d de4c 34bc 2498 b5bc 63ec 4f3d
00000370: 7ff5 c4ba 8826 9dbd 47d8 cd3d a480 0a3c
00000380: 98e2 ad3c 08d5 90bc f9d2 31bd 8098 8e3a
00000390: f36e 34bd 945a 66bd 1971 b4bc 36c4 a7bd
000003a0: e6ef 4aba 55ef 1c3d 8927 5f3d 800b f6bc
000003b0: 3370 f13c 47d6 01bd 96e0 113c eee4 ba3c
000003c0: ed8a 78bd 4931 21bc 689a 17bd afbb d6bd
000003d0: 2983 50bd e4a0 febd 7a95 4abc c518 81bd
000003e0: bd7f d8bd 9aaf 293a 79b3 b9bd b185 54bd
000003f0: b33f ec3c c623 893d 8521 27bd 783d d3bc
-0.052754443 -0.047930542 0.0029021224 -0.05495476 0.013146733 -0.049068324 -0.0069527747 -0.038408097
-0.060780484 -0.04205761 -0.09637585 -0.10985115 -0.0064356816 -0.08442688 -0.1077795 0.009668732
-0.016076546 -0.019710574 -0.0180161 -0.04672761 -0.057636093 -0.08254986 0.029267685 0.015412052
-0.014599551 0.018359816 0.020990329 -0.0980592 -0.1102043 -0.05092787 -0.024721775 -0.07195419
-0.027178349 -0.06586615 0.0038572478 -0.07236047 -0.014006723 -0.007445713 -0.14115638 -0.037681475
0.0036061157 -0.07356591 -0.0063628056 -0.06815195 -0.08101409 -0.051092673 -0.11697976 -0.09976517
-0.01803924 0.005889532 0.0033902912 -0.028750192 -0.013823875 0.016505672 0.07676455 0.015957927
-0.008175882 0.08379476 0.016189888 0.09498129 0.11412912 0.06831977 0.08307028 -0.04298959
-0.060358133 0.019809349 0.052673366 -0.05159279 0.006694302 -0.029174138 0.036584027 -0.039316654
0.045341946 0.08079688 0.061828274 -0.013163808 0.07507041 0.13005342 0.0646077 0.015195984
0.041641578 -0.10937962 -0.0014009728 0.040386993 -0.11836996 0.011223873 0.073014565 -0.0005305414
0.0436369 0.12914968 -0.10833548 -0.06772492 0.026595091 -0.08261908 -0.031522386 -0.022419756
-0.01343972 -0.071666226 -0.024272207 -0.052223787 -0.0845779 -0.14611186 -0.044290278 -0.089896455
-0.104126684 -0.0127654355 -0.077469304 -0.08035119 -0.032312907 -0.045460723 0.0008644933 0.011475628
0.0035020942 0.011798542 -0.0061395057 -0.08862586 -0.024440475 0.055271573 -0.012954972 0.01745633
0.11541804 0.064051986 0.059502415 0.043341994 0.01625545 -0.036399685 -0.00024136902 -0.09082781
-0.050274238 -0.015041529 -0.0017772147 -0.06250473 -0.046778094 -0.08463417 -0.0033066934 -0.022444641
-0.07239124 -0.0484356 -0.039596234 -0.028195744 0.038406827 -0.01301722 -0.10733337 -0.026809942
-0.034642063 0.05760942 0.072746 -0.040758703 -0.03588748 0.07658584 -0.022730982 0.097065546
0.015510065 0.06605629 1.6561822e-05 -0.016024183 0.06000378 -0.018549677 -0.016350718 -4.0380386e-05
-0.067385904 0.059204165 0.06317607 0.07452308 -0.063303575 0.117411815 0.0804828 -0.065432206
0.041015673 0.04063713 0.018327156 -0.005931151 0.11176426 0.100613385 0.06207263 0.17246722
0.12934498 0.10515178 0.18961316 0.08879353 -0.04700853 0.06301942 -0.01976828 -0.056837525
0.04419477 0.020422997 -0.020570092 0.014090394 0.040353697 0.06689109 0.05038746 0.021082263
0.03333601 0.006706855 -0.06752519 0.061990492 0.05648992 0.04517793 -0.13212425 -0.09107841
0.0047464008 -0.10278287 -0.08398499 -0.06468152 -0.04835752 -0.03795398 -0.07312157 0.03921762
0.019992672 0.054958988 0.03046612 0.0049140654 -0.008903767 0.06573811 -0.017162224 0.0747986
0.034182686 -0.011004655 -0.022167273 0.050762545 -0.0015026777 -0.07673365 0.10051017 0.008453522
0.021226212 -0.017679706 -0.04341409 0.0010879189 -0.044051122 -0.056238726 -0.022026585 -0.08191721
-0.0007741436 0.038314182 0.054481063 -0.03003478 0.029472446 -0.03169849 0.008903643 0.02281424
-0.060679365 -0.009838411 -0.037012488 -0.104850166 -0.050906334 -0.12433031 -0.01236474 -0.063035525
-0.10571239 0.0006473005 -0.09067435 -0.05188531 0.028838968 0.06696276 -0.04080345 -0.025786147

conv2.bias f4 [64]
00000000: 27df 013c 6926 4ebd 2575 53bd d9ea 37bd
00000010: b97e 9cbc c14f bfbc 4438 473d 4181 d13c
00000020: 7070 463d 483f 3abd f5dc 3d3d 49d9 d13c
00000030: 3838 643d 4423 d6bb dc23 543d e883 2e3d
00000040: d3e2 873c ee40 b1bb d89c 26bd 02c2 373d
00000050: e874 5dbd cbc9 ae3c 1b00 37bb 7dad 123b
00000060: 1277 15bd 404d d93c 7ae0 783d 8887 db3c
00000070: 58f1 0b3d 45ac 65bd c63b 8e3c 0b11 21bc
00000080: 14db 3cbd 302a 023d 0aac 2a3d 65cc 66bd
00000090: 70af 1fbd 489e 39bd e6a1 4f3d 3ff2 eebc
000000a0: 79c9 c53b 4f10 643c ce0c 26bb 4d96 563d
000000b0: d87b 0b3d 2a1f febb 808d 1c3d bd45 633d
000000c0: 63f9 10bc 00ba 03bd 7e8a 0e3b 6ada 15bd
000000d0: 6bf5 58bd c2a8 e03c 00bc 8d3c f2aa 47bd
000000e0: 8bee b6bb 7286 d13c 7f15 f23c ba1e 143d
000000f0: 13a6 b73c 229e 66bd d3fe 1dbd 1072 fdbc
0.007926739 -0.0503296 -0.05162539 -0.044901703 -0.019103395 -0.02335346 0.048637643 0.025574328
0.048447073 -0.045470506 0.0463533 0.025616305 0.055717677 -0.0065349657 0.05179201 0.042606264
0.01658765 -0.0054093516 -0.04067692 0.044862755 -0.05406657 0.021336457 -0.0027923647 0.002238124
-0.036490507 0.026526093 0.060760953 0.026798025 0.03416571 -0.056072492 0.017362487 -0.0098307235
-0.046107367 0.031778514 0.041667975 -0.05634727 -0.03898567 -0.045316964 0.050691508 -0.029168246
0.0060359803 0.013919904 -0.0025337222 0.05238943 0.034053653 -0.00775518 0.038220882 0.05548643
-0.008848521 -0.032159805 0.0021750028 -0.03658525 -0.052968424 0.02742422 0.01730156 -0.04874701
-0.0055826358 0.025576804 0.029551266 0.036162116 0.022418058 -0.05630315 -0.038573097 -0.030938178

bn2.weight f4 [64]
00000000: 47b4 813f 95c2 713f c179 683f 1755 6c3f
00000010: 862e 813f d307 773f 7823 513f 2b2f 863f
00000020: cca6 853f 377c 683f d962 6f3f a240 6d3f
00000030: 298d 583f 2d63 903f b072 6b3f 57ad 8c3f
00000040: 7670 723f 3256 793f 1dc8 923f 2aeb 753f
00000050: a741 613f 170f 8e3f 99c5 873f 9ec1 7b3f
00000060: 4471 7c3f 8c0a 8a3f 595d 723f 33de 783f
00000070: e183 7a3f a7ca 743f b53c 783f 6e03 693f
00000080: 5e20 8f3f f532 673f 455c 763f f9a4 853f
00000090: d37d 653f 2e63 613f 8da2 853f 5832 873f
000000a0: 7646 843f 587a 703f 7a4f 923f c6f6 833f
000000b0: 3dfc 633f 0d4b 893f 13e7 663f a290 613f
000000c0: 4f1d 773f 12fb 933f 6334 803f 111c 803f
000000d0: 101a 823f 888f 6d3f acba 693f 0689 783f
000000e0: 5970 843f 9e02 613f bf9a 813f 0922 803f
000000f0: 6d7b 753f 1eca 743f d4a9 723f 78a7 7b3f
1.0133141 0.94437534 0.9081078 0.92317337 1.0092323 0.96496314 0.81694746 1.0483145
1.0441527 0.90814537 0.93510205 0.92676747 0.84590393 1.1280266 0.91971874 1.0990399
0.9470285 0.9739715 1.146732 0.96061957 0.879908 1.1098355 1.0607177 0.9834231
0.9861033 1.0784469 0.9467369 0.9721405 0.9785748 0.9562172 0.9696763 0.9102086
1.1181753 0.9031213 0.9623454 1.0440971 0.8964512 0.8804196 1.0440232 1.0562239
1.0334003 0.9393668 1.1430504 1.0309684 0.8905676 1.0726029 0.9019634 0.8811132
0.96529096 1.1560996 1.0015987 1.0008565 1.0164204 0.92797136 0.91300464 0.9708408
1.0346786 0.8789462 1.012535 1.0010387 0.9589146 0.95620906 0.9479039 0.9830241

bn2.bias f4 [64]
00000000: 02e3 e8bd bb91 bdbd fbd5 d5bd 0d6c ddbd
00000010: 42a4 17be 0a21 07be b2d9 e3bd 10ea 15be
00000020: 6a7f 00be 8c69 d2bd bec8 bcbd dc2d afbd
00000030: 3425 f3bd c51d 8bbd abd4 86bd 4714 7cbd
00000040: 27ff 0dbe eed3 76bd 1f22 81bd aa95 96bd
00000050: 1675 dcbd 286b 983c 5961 8cbd aa31 dbbd
00000060: c45e 05be f86e c4bd 5208 b9bd f664 e0bd
00000070: ead9 e5bd 0d3c a3bd d183 05be 97aa edbd
00000080: a2fe 8abd 0f75 98bd 9b5b 36bd 0774 03be
00000090: b6d9 07be 518e 18be 5e60 e3bd af1b 4dbd
000000a0: 984b 93bd f7a5 0dbe 4011 5cbd 5453 babd
000000b0: 6b35 a1bd 907d 93bd 2754 76bd 30d0 f8bd
000000c0: 55b1 b1bd 666e c13c 4e00 20bd 434c f9bd
000000d0: be48 0ebe 9d51 c8bd 69c3 f5bd 8ae5 d0bd
000000e0: 0bd6 89bd ded9 0dbe fa1b 38bd aeb7 04be
000000f0: 9b8e c3bd 9ec7 e5bc 891d 24bd d44b efbd
-0.11371423 -0.092563115 -0.10441204 -0.10811625 -0.14808753 -0.13196197 -0.111255065 -0.14640069
-0.12548605 -0.10274038 -0.09217976 -0.08553669 -0.1187233 -0.067927875 -0.06583532 -0.061542775
-0.13866864 -0.060260706 -0.06305336 -0.07352765 -0.1076452 0.018605784 -0.06854505 -0.10702832
-0.13024431 -0.09591478 -0.0903479 -0.10956757 -0.112232044 -0.07970438 -0.13038565 -0.11604803
-0.067868486 -0.07444202 -0.044520956 -0.1283723 -0.13266644 -0.1489804 -0.11102365 -0.05007523
-0.07192153 -0.13832842 -0.05372739 -0.09097925 -0.07871517 -0.072016835 -0.060138848 -0.121490836
-0.086764015 0.023612212 -0.03906279 -0.12172749 -0.13894936 -0.097811915 -0.12000162 -0.10200031
-0.067302786 -0.13852641 -0.044948556 -0.12960693 -0.09548684 -0.028049286 -0.04006723 -0.11684385

bn2.running_mean f4 [64]
00000000: f0f0 45bf a5d1 dabf c778 87bf 6c57 f2bf
00000010: bc13 64bf 499a 1dbf b946 0dc0 42f9 adbf
00000020: a076 f5be 0e0d c7bf f237 b8bf 9ec8 b2bf
00000030: f1a8 a73f a650 2dbf 05bf a8bf 8951 69bf
00000040: b7f0 d3bf 94dd 81bf 840e 68bf ac93 85be
00000050: 6030 96bf 1817 abbf a0ee a7be 4308 98bf
00000060: 21ae c2bf e56f 9bbf c811 8ebf 0027 daba
00000070: 95c8 b2bf 6ebd f53f 7e92 bebf a1cd ddbf
00000080: 17bf b2bf 26fb 87bf 0b6c 9ebf 8015 373f
00000090: 9b23 b0bf 5a50 b8bf d86b 05bf 1016 84be
000000a0: 0562 babf bc04 c2be 6f34 0dbe 8701 bcbe
000000b0: c32e abbf a369 bdbf 2092 cebf 0bef e7bf
000000c0: bdab c2bf 5acd a0bf aa78 b2bf ab31 60be
000000d0: e6dd abbf 6f49 f0bf 9ba5 86bf 59ce 82bf
000000e0: 56ae a2bf da33 aabf 648e d2bf 26bd 80bf
000000f0: be33 c4bf 0cd1 9dbf 3ad7 9dbf f399 e7bf
-0.77320766 -1.7095228 -1.0583733 -1.8932929 -0.8909261 -0.61563545 -2.2074416 -1.3591692
-0.47942066 -1.5550859 -1.4392073 -1.3967474 1.3098432 -0.67701185 -1.3183295 -0.9114004
-1.6557835 -1.0145745 -0.9064715 -0.26089227 -1.1733513 -1.3366423 -0.32799244 -1.1877521
-1.520939 -1.2143523 -1.1099176 -0.0016643703 -1.3967463 1.9198434 -1.4888456 -1.7328378
-1.3964566 -1.062352 -1.2376722 0.7151718 -1.3760866 -1.4399521 -0.5211768 -0.25798082
-1.4561163 -0.37894237 -0.13789533 -0.36719915 -1.3373646 -1.4797863 -1.6138344 -1.8119825
-1.520866 -1.2562668 -1.3943074 -0.21893947 -1.3427093 -1.877241 -1.0519289 -1.0219222
-1.2709453 -1.3297074 -1.6449704 -1.0057724 -1.532829 -1.2329421 -1.2331307 -1.8093857

bn2.running_var f4 [64]
00000000: df3f 4241 0d30 8140 af46 9940 b573 8240
00000010: 8f06 5c40 8a4f 0641 4f5d 7b41 ed36 4d40
00000020: 46c3 2341 f4bf 6840 9667 8140 0596 c540
00000030: c264 9340 d2b5 6940 3764 2d40 887c ed3f
00000040: c1b2 3540 dfcb 1240 8013 a040 80d9 0f40
00000050: 1cd1 3c40 b173 3140 59c6 0a41 38a1 d03f
00000060: 295d 3a40 6f42 5940 4471 a540 8864 ca3f
00000070: b9fd 9c40 7215 8140 7aa7 d03f c7c3 953f
00000080: 5fed 4540 e6ae 2840 f091 9040 c71b 3040
00000090: b6bf 1f41 3fe1 1840 63c5 7741 3db8 fc40
000000a0: f95c 1640 7185 1241 a8a8 8440 1e32 4a41
000000b0: b70a 2840 3d20 8740 ba8b 2240 c1d1 4f40
000000c0: 0de0 3440 d98f 5940 2a8e 6640 4d05 7141
000000d0: 2d8e 6140 9879 3d40 b344 1040 494c 8540
000000e0: 89b0 7240 29d2 8e3f 2090 5140 2a41 2b40
000000f0: 6bab 6940 0777 c33f c7b4 0d40 3db6 3340
12.140594 4.0371156 4.7898784 4.0766244 3.4379003 8.394419 15.71028 3.2064774
10.235174 3.636716 4.043895 6.174563 4.6060495 3.6517224 2.7092416 1.8553629
2.8390353 2.2936933 5.0023804 2.2476501 2.950263 2.7726862 8.673425 1.62992
2.911936 3.3946798 5.1700764 1.581193 4.905972 4.033868 1.630111 1.1700372
3.092613 2.635675 4.5178146 2.7516954 9.984304 2.388748 15.48569 7.89749
2.3494246 9.157578 4.145588 12.637236 2.625654 4.2226853 2.5397782 3.2471774
2.826175 3.3994048 3.602427 15.063794 3.5243027 2.9605465 2.254193 4.165562
3.7920249 1.1157886 3.2744217 2.6758523 3.6510875 1.5270699 2.2141588 2.807998

conv3.weight f4 [128, 64, 3, 3]
00000000: 2926 ad3c 23c6 593b 5f45 803d fee1 9ebc
00000010: 918d 163d 1c6a 20bd 7cec 6d3c f785 f3bc
00000020: 93bd bbbc af48 0dbd 936e 933c 2f8d 733d
00000030: 1683 893b b3d3 3ebc 08d1 a13c 894c 7aba
00000040: f022 1d3d 830f 8e3d c13b 1fbd 1f82 9abc
00000050: c7c7 f53c 2241 3cbc fa3c 93bc f708 a93c
00000060: 58b2 90bc d9d2 53bd 2073 a2bc 6ed9 323c
00000070: 1b53 d83c 021b 5a3c 8e43 0abd 3e89 823c
00000080: 368a 6b3d 88d7 62bc bfd4 933c c208 633d
00000090: c506 eb3d ac62 993d c3d3 7b3b 2712 393d
000000a0: 8fe5 503d 5ccc 1ebd a47a 863d f670 093e
000000b0: c1aa 303c aeb9 38bd c7ef 89bc b8ba 713c
000000c0: a90a a3bc 7372 38bb be9d 093d 0fe6 853c
000000d0: 7285 49bd d576 bebc 3f08 b23b 73cf 0e3d
000000e0: 928e 363d a13d 8ebc d219 983c 1fe0 2dba
000000f0: de57 9bbc b50e ed3c 451b 6dbd 543c 2e3d
00000100: 44c1 753d 28ab b03b 252e cc3d 9440 8f3c
00000110: 038a e43c 3988 963d 3d03 853d 26be 95ba
00000120: 6971 a73c 249e 87bb c0ba 0d3d 2d55 743a
00000130: 3d43 68bc 76f2 e83c 290c e9bc a422 173d
00000140: b477 3dbc fffc c83b fe9d 323c 1682 7a3d
00000150: 4f4d 10bd 51ac 38bd b23d 1f3d 807c ba3b
00000160: 357d 8ebc a37d 903d 2c6f 343d b81f 803d
00000170: 449e 193d 43d9 2c3d d7e7 76bc ccdc d8bc
00000180: 10c9 de3c 783a 6bbc b9e4 2abc a70e 75bc
00000190: 7ead 3c3d cd9a c93d 7aa6 823c 3553 6a3d
000001a0: 412a ac3d 43d6 05bd d686 ae3c da8b 803d
000001b0: f2d7 1b3b b256 a5bc fdec 213c 9320 403d
000001c0: 809a f2bc af5d 3abc 9396 c93c 0fd0 45bd
000001d0: 9957 37bc ffaa e83d 3bff 633d 37c6 c3bd
000001e0: 7bee 213e b546 8d3d b196 b7bc c27d 8d3d
000001f0: 4669 803d 6218 01be c580 363c 8992 23bc
00000200: 11ae 603d 35a2 e33c 2b9c a8bd 50b2 b03c
00000210: 63df 6bbd 228c 93bd 70bf a13c 3d89 67bc
00000220: ea68 a53d e596 f73d 883a 90bc 2020 ec3d
00000230: bb93 9a3d ee1b b3bc c778 e43c 1c01 4b3d
00000240: e7d5 383d cf48 403d 47ec e23b e7a4 e43c
00000250: 6aa3 8c3d 0180 f1ba a86a 913c 82a9 403d
00000260: 899b 38bc 8bcb a13d a297 6e3d db71 563c
00000270: be0d 683c ada9 273d 9021 a7bc 26d1 fb3b
00000280: f211 22bb 4f6c b0bd 1fdf cf3d c629 db3d
00000290: e1e5 1cbd 3f8d 213e 1412 e33d cf19 9abd
000002a0: 2899 0d3e c93c 0b3e 2212 85bd d85b 283c
000002b0: 5d62 513d 23f1 9b3d 87de 4a3c ade4 703b
000002c0: ab15 0c3d 55a9 7abd 271c a6bc f1bf 84bc
000002d0: 386a 6a3c b8e0 7b3c 598f 4d3d f0c1 dcbc
000002e0: 8538 443c fb54 ae3c 09b2 99bd 266d dcbc
000002f0: 5639 2e3c f5bc 5cbd 8ef6 bf3c a1aa 813d
00000300: f872 8bbd 8e07 45bc 6930 fb3d a1a3 e0bc
00000310: c50a 043d c0c4 dc3d adeb ffbb ceec 1f3c
00000320: 8a43 e43c 7f70 eabc 86a7 033d e703 26bb
00000330: 8fd1 3ebc e62b fc3a 671e 63bc 891b 9ebc
00000340: e4b1 c8bc a2f6 8e3b 7360 063c 9329 bc3c
00000350: 2eaf d7bc 5006 a6bd 0b2d 83bd 7c1e 02bd
00000360: 7ad2 8a3d 537b 9c3d 7e51 8a3c c8d4 a13c
00000370: 9a83 5b3d 8090 21bd 6923 db3c dedd 173d
00000380: 5abc 0dbd 1bac b43d db8e e93d 2593 8ebd
00000390: 2bd2 073e ba38 253d 649d 063c cbc1 be3d
000003a0: 6498 ba3d 95d3 8abd 3070 5c3c 7e20 553d
000003b0: 1ab9 4a3c a937 a0bc 50a7 fd3c bb4e 38bd
000003c0: 0353 013d bada 633b 76ee 17bc 88b3 fd3c
000003d0: d578 b6bb 6bcd 513c 7e12 98bc 374b 673b
000003e0: 6cca 793c a491 7fbd 50d8 9dbd 3a69 4bbd
000003f0: 49f8 623d e3f2 0b3b 0825 373d 3976 db3c
0.02113636 0.003322967 0.062632315 -0.01939487 0.036756102 -0.039163694 0.014521714 -0.029726965
-0.022917544 -0.034493145 0.017997062 0.059460815 0.004196535 -0.011647153 0.019752994 -0.0009548148
0.038363397 0.069365524 -0.038875345 -0.018860875 0.030002488 -0.011490138 -0.017973412 0.020634158
-0.017663166 -0.051714752 -0.019830287 0.010916097 0.026406815 0.013312103 -0.03375583 0.015934583
0.057504855 -0.013845332 0.018045781 0.055428274 0.114759006 0.07489523 0.003842578 0.045183327
0.051000174 -0.03876911 0.065663606 0.13421997 0.010782898 -0.045098953 -0.016837968 0.01475399
-0.019902544 -0.002814439 0.0335977 0.016345052 -0.04919953 -0.023250023 0.005433112 0.034865808
0.04456956 -0.017363371 0.018567 -0.0006632823 -0.018962797 0.028937677 -0.057887334 0.042538002
0.059998766 0.005391497 0.09969739 0.017486848 0.02789784 0.07350201 0.06494758 -0.0011424467
0.02043982 -0.004138725 0.034601927 0.00093205535 -0.014176187 0.028435927 -0.028448181 0.03689827
-0.011564184 0.006133675 0.010901926 0.061159216 -0.035229977 -0.04508621 0.038877197 0.005691111
-0.017393688 0.07055213 0.044051334 0.0625605 0.03750445 0.042199384 -0.015069923 -0.026472472
0.027195483 -0.014357202 -0.010430508 -0.014957107 0.046063893 0.09843979 0.015948523 0.05720826
0.08406497 -0.03267504 0.02130453 0.062766746 0.0023779836 -0.020182941 0.009883163 0.046906065
-0.029614687 -0.011374875 0.024607932 -0.048294123 -0.0111903185 0.1136074 0.05566333 -0.09559291
0.1581363 0.06898252 -0.022410722 0.06908752 0.06270079 -0.12606958 0.0111390995 -0.009983667
0.054853503 0.027787307 -0.08232912 0.021569401 -0.057586085 -0.072044626 0.019744605 -0.014131841
0.080766514 0.12089328 -0.017606035 0.11529565 0.075477086 -0.021863904 0.027889622 0.049561605
0.04512587 0.046944436 0.006925139 0.027910663 0.06867106 -0.0018424989 0.017751053 0.047036655
-0.011267551 0.07900151 0.058250077 0.013088669 0.014163433 0.0409333 -0.020401746 0.0076848445
-0.0024729935 -0.08614408 0.10149979 0.10701327 -0.038305167 0.15776537 0.110874325 -0.07524454
0.13827956 0.13597406 -0.06497599 0.0102758035 0.051119197 0.076143526 0.012382156 0.0036757395
0.03420035 -0.061196644 -0.020277096 -0.016204806 0.014307551 0.015373401 0.050185535 -0.026947945
0.011976366 0.021280756 -0.07504661 -0.026907515 0.010633787 -0.05389114 0.023432996 0.06331373
-0.06809038 -0.012025727 0.12265093 -0.027421774 0.032236833 0.107797146 -0.007810077 0.0097610485
0.027864236 -0.028618095 0.032142185 -0.0025331916 -0.011646642 0.0019239157 -0.013862229 -0.01930024
-0.024498887 0.004362897 0.008201706 0.022969043 -0.02632865 -0.08106673 -0.06405076 -0.031767353
0.067784265 0.0764071 0.016884562 0.019754782 0.053592302 -0.039444447 0.026750283 0.037076823
-0.034603454 0.08821889 0.11404201 -0.06961659 0.13263766 0.0403373 0.008216236 0.09314307
0.091110975 -0.06778637 0.013454482 0.05203294 0.012373233 -0.01955779 0.03096357 -0.04499696
0.031573307 0.0034767822 -0.009273162 0.030969396 -0.0055686035 0.012805323 -0.018563505 0.0035292634
0.015246015 -0.062394753 -0.07707274 -0.0496609 0.055412564 0.0021354489 0.04471305 0.026789771

conv3.bias f4 [128]
00000000: 4a43 043d 72c3 cd3c 55d9 0fbc 8896 cebc
00000010: 3f66 10bd 832e 013d f980 09bb 578c 58bc
00000020: e09a 5fbc 4466 233d aec8 13bd 0202 783b
00000030: 3ee8 373c 0bec 9c3c e8b0 fa3c 6680 02bd
00000040: df46 71bc f552 4e3c 0b3d b6bb 7474 f83a
00000050: af3d 163d c9b9 0e3b bc46 d3bc 1848 8fbc
00000060: 0cab bc3c 15b5 f4bc f48d 1b3d 5015 233d
00000070: 97b4 213d 0d32 f33b 35f4 3f3b 24e2 0a3c
00000080: 2942 31bb 7f8d 133d d4eb 50bc 4ea0 2abc
00000090: 8857 02bd 2e6a dd3c 9164 d1bc 6728 edbc
000000a0: c660 cfbb b83e 26bd 6bd1 18bd 1966 a6bc
000000b0: 2689 05bc baf1 283c a978 e63c f381 233d
000000c0: bbef b8bc 9c37 2cbd d660 b1bc 7717 6fbc
000000d0: 0620 22bd 0432 19bd e52e 9c3c b017 afbc
000000e0: f2f3 92bb 3d0a f73c 9b3c 22bd 95b2 183d
000000f0: 5fd9 ee3c de28 123d bc0f 8dbc fab4 093d
00000100: 54a3 133c 1043 2ebc e710 31bc 4a52 263d
00000110: becd 863a cc71 f63c 36f4 1c3d a99f ff3c
00000120: 984f debc 36d1 9abc c103 e6bc 295f 9fbc
00000130: dae0 3dbb 9b9c cdbc 35e3 28bd 0947 89bc
00000140: 8651 ed3c 9a6c b73c a25f e5bb cf19 bf3c
00000150: 7060 d4bb 0c66 033d 4ad7 c53c 5d03 053d
00000160: cc1d a2bb 8ba3 013d 8c5c 2bbb dbc3 d13c
00000170: 47d5 143d 1d88 7ebc f99c 3c3c a0b5 c2bb
00000180: e9d7 933c 50c3 f7ba 9d69 db3b 35ff 333c
00000190: cff2 ce3b 4050 8fbb 1d59 0fbc bd15 9dbc
000001a0: ecc5 23bd 296e 11bd 140d d4bc dcf6 ccbc
000001b0: a687 ffbc 7536 613c 6936 eabc 3fca ed3c
000001c0: 00e2 d4bc e9b2 bbbc 22ee 0c3d 46e9 953c
000001d0: 58b8 4bba ef84 b7bc 248e 613c 5f32 d9b9
000001e0: 0b43 a93c e28f 113d 6ea7 9cbc dc6f 25bd
000001f0: 04d7 9ebc 2ad6 183b 7090 56bb 416f 9dbc
0.032290734 0.02511761 -0.008779843 -0.025218263 -0.03525376 0.031538498 -0.0020981415 -0.013217053
-0.013647765 0.03989245 -0.036080055 0.0037842994 0.011224804 0.019155523 0.030601934 -0.03186073
-0.01472637 0.012593021 -0.005561476 0.0018955604 0.03667992 0.0021778217 -0.025790565 -0.017490432
0.02303078 -0.029871503 0.037977174 0.039815247 0.039478865 0.007421738 0.0029289846 0.008476768
-0.0027047491 0.036023613 -0.012751538 -0.010414196 -0.031821758 0.02702817 -0.02556065 -0.02894993
-0.006328675 -0.040587157 -0.03730909 -0.020312356 -0.0081503745 0.010311538 0.028133707 0.03991885
-0.02257525 -0.04204522 -0.02165262 -0.014592997 -0.03958132 -0.037401214 0.01906533 -0.0213736
-0.004484647 0.03015625 -0.03960858 0.037279684 0.029156385 0.035683505 -0.017219417 0.03361986
0.009011108 -0.010636106 -0.0108072525 0.04060582 0.0010284705 0.03008356 0.038318835 0.031204062
-0.027137563 -0.018898588 -0.028077962 -0.019454556 -0.0028973133 -0.02509909 -0.041232307 -0.016757505
0.028969537 0.022390652 -0.0069999257 0.023327736 -0.006481223 0.03207974 0.02415051 0.03247391
-0.0049473997 0.031650107 -0.0026147692 0.025606086 0.03633621 -0.015535382 0.011512035 -0.0059420615
0.01804729 -0.0018902812 0.0066959397 0.010986139 0.006315566 -0.00437358 -0.008749274 -0.019175405
-0.039983675 -0.035505448 -0.025885142 -0.025020055 -0.031192612 0.013745894 -0.028590398 0.029027103
-0.025986671 -0.02291246 0.03440679 0.01829971 -0.0007771305 -0.022402255 0.013766799 -0.00041426995
0.020661851 0.035537608 -0.019122805 -0.04038988 -0.019389637 0.002332101 -0.00327399 -0.019218089

bn3.weight f4 [128]
00000000: 4dc2 893f 8c54 7f3f 3fba 8b3f 5134 7d3f
00000010: 0979 823f dc88 8c3f 5143 813f 58ec 8d3f
00000020: 5c8e 823f df45 8e3f 4158 863f 1880 863f
00000030: 473a 833f b882 7e3f 3502 823f 2a6a 8e3f
00000040: 42af 7f3f f51c 8b3f 2cbc 843f 1704 7f3f
00000050: 44db 8e3f 7fd6 833f f976 833f f752 8c3f
00000060: e535 823f e1ed 7e3f 54e7 813f 62c0 8c3f
00000070: 9904 903f e80f 793f 41f5 893f 5d02 8d3f
00000080: d56c 853f 390e 8e3f ca47 873f 18ed 8a3f
00000090: a14c 813f 3f18 833f dc2e 8d3f dcc3 833f
000000a0: 6bec 7f3f 96ad 8b3f 525c 8b3f 7c3c 8a3f
000000b0: 47aa 843f 0214 8e3f 04d8 8c3f 9043 833f
000000c0: c4a3 863f d7b1 8c3f cef9 833f 495f 8c3f
000000d0: db65 8c3f 7adc 803f 6d8b 843f 1a38 8c3f
000000e0: 1656 873f 3b71 8f3f f3a6 863f 7c9e 8a3f
000000f0: 35d7 893f 2563 853f 2a62 713f a750 8d3f
00000100: 2c85 873f 03fa 823f 3118 8a3f b374 8e3f
00000110: 80b8 713f be22 8d3f aacd 7e3f 5e32 773f
00000120: 7ead 873f 9d98 833f 51b9 833f 6f82 8c3f
00000130: 1f6b 813f 6b61 843f 5e5d 843f b8c6 853f
00000140: b1bb 833f 43be 8c3f c20d 7b3f f589 843f
00000150: 18a9 823f 4996 8f3f f3cd 893f e3c8 7c3f
00000160: 0ec4 803f 5d22 8b3f b864 853f 7f12 8c3f
00000170: 8635 853f d1e6 8b3f c15d 843f 971d 853f
00000180: 6dc1 703f 37ff 833f 1ff1 843f b896 8c3f
00000190: 5009 8e3f 18b9 8a3f a5a3 7b3f 1a3f 8c3f
000001a0: f64a 8c3f 7b35 833f 4b9e 8b3f 1e7a 8a3f
000001b0: 26fc 8d3f 06c8 723f 81fd 8b3f 763a 8d3f
000001c0: e089 833f 8ea8 813f 59bd 7f3f 62ee 8b3f
000001d0: a79b 8e3f a00a 8d3f 83f2 833f 9209 843f
000001e0: 865b 8c3f 4e83 823f 76d3 8e3f 1fe3 863f
000001f0: 5c03 8c3f b2c6 8f3f 69ee 8b3f d308 843f
1.0762421 0.99738383 1.0916213 0.98907954 1.0193187 1.0979266 1.0098668 1.1087751
1.0199695 1.1115073 1.0495683 1.0507841 1.025216 0.9941821 1.0156924 1.1126149
0.998768 1.0868212 1.0369925 0.99615616 1.1160665 1.0299834 1.0270683 1.0962819
1.0172697 0.99581724 1.0148721 1.099621 1.1251403 0.97289896 1.077797 1.1016346
1.0423838 1.109809 1.0568783 1.0853605 1.010151 1.0241774 1.1029925 1.0294147
0.9997012 1.0912349 1.0887549 1.0799708 1.0364465 1.1099856 1.1003423 1.0254993
1.0518727 1.0991772 1.0310609 1.0966579 1.0968584 1.0067284 1.0355049 1.0954621
1.0573146 1.120643 1.0519699 1.0829616 1.0768801 1.0420882 0.9429041 1.1040238
1.0587516 1.0232548 1.0788633 1.1129364 0.9442215 1.1026227 0.9953257 0.9656123
1.0599821 1.0280949 1.0290929 1.0977305 1.0110816 1.034223 1.0340993 1.0451269
1.0291654 1.0995563 0.9806787 1.0354601 1.0207853 1.1217738 1.0765976 0.9874403
1.0059831 1.0869862 1.0421362 1.0943145 1.0406959 1.0929815 1.0341111 1.0399655
0.94045144 1.031226 1.0386084 1.0983496 1.1096592 1.0837736 0.98296577 1.0956757
1.0960376 1.0250696 1.0907682 1.0818517 1.1092575 0.9483646 1.0936738 1.1033466
1.0276451 1.0129564 0.99898297 1.0932124 1.1141251 1.1018867 1.0308384 1.0315421
1.0965431 1.0196321 1.1158283 1.0538062 1.0938525 1.1232512 1.0932132 1.0315193

bn3.bias f4 [128]
00000000: beb8 fa3a 82e6 373d a849 1e3b cf81 433d
00000010: ef25 843d 9ecb be3b c1ab 843d 557f 063c
00000020: b0c2 8a3d 5695 9c3b 4632 903d 7111 923d
00000030: 6c9e 963d 88ea 023d da2b 5e3d 505c 193c
00000040: 48b6 863d 7114 643c 77a3 903d 0824 0e3d
00000050: 15eb 653c 31fc 913d 7fca 603d efce f93b
00000060: 9189 5d3d fff1 073d dc57 513d 3750 c43b
00000070: c09f 323c 5330 bb3c eb5d 333b 7cc1 9cbb
00000080: a952 9a3d fe69 223c 064c 383d 4574 4b3c
00000090: dc4f ce3c b86d 893d 38c7 543c ab0e 8a3d
000000a0: f39f 133d 520d dabb f333 303c 7593 a83b
000000b0: 3ee5 b13d 97a6 fd3b 685c 8b3c 6731 6e3d
000000c0: 127f 9fbc 0288 883c c56d 8a3d ca9d a33b
000000d0: b872 283c e2eb 693d a84f 523d 3c9d e73b
000000e0: 10dd 9cbc 7493 7cbb 642d 813d 196b f83b
000000f0: 3b5e d5bc 83c6 a73d 7575 17bc 68d9 1c3c
00000100: 95c9 8abc 7407 973d 16ea aa3a 69b8 9ebb
00000110: 3115 76bc 37a8 263c ce03 883d 0441 303b
00000120: 9451 20bc c6b6 883d 583d a53d 3056 933c
00000130: 55a3 483d 6c02 9a3d ee10 9c3d 2670 963d
00000140: 4ca7 b63d 4d45 043b fa68 bfba 9907 7e3d
00000150: ad7f ae3d daac 3e3c b710 8ebb 04e4 2c3d
00000160: 4ce8 d83c 903b 4b3c d3c4 9b3d bf72 3c3c
00000170: f60f 9f3d 8853 313b 69ba a23d 2e86 8c3d
00000180: 087c 3abd b31f 9a3d 90a4 863d 4e93 813c
00000190: 7c51 4f3b 6d01 b83b 7c5b fd3c 0d81 823b
000001a0: 086b 3c3c 75a8 7e3d 0312 26bb f3de e4bb
000001b0: d6c4 adbb a475 8dbc add9 7a3c e7b1 3d3c
000001c0: 6362 8f3d 9a67 843d 951d 013d 88b3 0e3c
000001d0: d330 7c3b 0f18 2f3c b1d3 7f3d 55b1 8b3d
000001e0: 56e5 073c e4e7 833d b17a b13c 5116 903d
000001f0: 7f4e dd3b e3d0 a13c ff31 133c 1804 9a3d
0.0019128544 0.044897564 0.002415279 0.047731217 0.06452548 0.005822613 0.06478072 0.008209069
0.06775415 0.0047785444 0.07040839 0.07132233 0.07354435 0.031961948 0.05424104 0.009360388
0.06577736 0.013920889 0.070624284 0.03470233 0.014033099 0.0712818 0.054880615 0.0076235454
0.05408627 0.03318977 0.05110918 0.0059910077 0.010902345 0.022850191 0.0027369212 -0.0047838073
0.075352974 0.009912966 0.044994377 0.012417858 0.025184564 0.0671038 0.012986951 0.06741079
0.03604121 -0.00665442 0.010754573 0.0051445314 0.086863026 0.0077408063 0.017011836 0.058152582
-0.019469772 0.016666416 0.06759218 0.004993175 0.010281257 0.05710972 0.051345497 0.0070683043
-0.01914838 -0.0038540037 0.06307486 0.0075811264 -0.02604591 0.0819216 -0.0092443125 0.009573318
-0.016941825 0.073744684 0.0013039734 -0.0048437607 -0.015019701 0.0101719415 0.06641351 0.002689422
-0.009785075 0.06675486 0.08068341 0.017985433 0.04898389 0.07519993 0.076204166 0.07345609
0.08918628 0.0020182908 -0.0014603429 0.062018964 0.08520446 0.011637891 -0.0043354887 0.04220964
0.026477955 0.0124043375 0.076059006 0.011501967 0.07766716 0.0027057845 0.07945711 0.0686153
-0.04552844 0.075255774 0.065743566 0.01581731 0.0031634262 0.0056154043 0.030927412 0.003982669
0.011500128 0.062172372 -0.0025340326 -0.0069845854 -0.0053030057 -0.01726801 0.015310687 0.01157806
0.07001188 0.06465073 0.031522352 0.008709796 0.003848125 0.010686888 0.062457744 0.06820933
0.008294424 0.06440714 0.02166495 0.070355065 0.006753742 0.019752925 0.008984088 0.07520312

bn3.running_mean f4 [128]
00000000: f8ce 2640 765c aa3f ff1e 2440 e1ef 363f
00000010: 401c 783f c543 2a40 97ee a23c cbbd 4c40
00000020: 7208 0040 6654 5f40 c3e2 e13e 882e 003f
00000030: 5ab5 513e 43e3 583f 0948 563f db6f 2e40
00000040: 4feb 21bf 608c 1440 62fe 103f 21f5 0840
00000050: 2d87 3440 e2e4 a03f 0e3f 673f 13e2 1f40
00000060: 2fe4 0540 aef0 e53f b151 9b3f d43a 4b40
00000070: 6e03 1740 f69f bc3f 6f1b 2340 0233 f53f
00000080: a940 db3f 02c3 5440 e1b5 473f 09fb 1e40
00000090: 1c0f 7f3f a349 3c3f 9e69 1940 94e6 b93f
000000a0: 912f ab3f b87c 0440 3999 1740 06b3 2e40
000000b0: d9f2 13bd d633 3140 44cc 2440 d689 263f
000000c0: df39 2740 ede3 2540 7f2f 8a3e 166a 2040
000000d0: 85f0 3e40 2509 3b3f e8db 723f e866 2940
000000e0: 4bb8 3140 33bd db3f 8ceb 853f 697b 4840
000000f0: 751c 5e40 6c3c e7be 72e5 913f 43af 3240
00000100: de6b 1640 2cb8 eabd af1c 1440 94e8 b23f
00000110: eae9 293f 6887 3340 6b0d 9d3b 670f d53e
00000120: 22e1 5140 c0b4 6f3f 7385 ffbe a2c8 1940
00000130: 544e a93f a5c0 203e 9640 7b3e f15d 4a3e
00000140: d53f 85bf 4d3f 0440 f78b 9c3f c0db 593f
00000150: 13e4 0d3f 3f0c 2340 f4af 2e40 eda8 103f
00000160: ac1e 853f 3ce4 2840 b0af 853f c4ae 3540
00000170: 2c9d 4f3f 0e93 4440 38e7 d83e f0a0 323f
00000180: cdad ea3f 14c2 64be 0638 ab3f 961f 2940
00000190: 203b 2040 918e 3040 8c79 9c3f 0e87 3f40
000001a0: 1d03 3b40 3a81 0b3f 3d42 0940 44dd 1940
000001b0: 468b e03f acf6 2240 d35e 2740 a881 5140
000001c0: 69a8 38bf 4d62 293f 751c 933f 961f 4740
000001d0: b193 f53f c2f9 2a40 5441 853f ca47 043f
000001e0: c544 2640 413c 963f 8f83 3840 a1f4 393e
000001f0: ad42 4f40 9e82 3040 67a0 3540 99de d33e
2.6063824 1.3309467 2.5643919 0.71459776 0.96918106 2.6603863 0.01988916 3.199084
2.0005155 3.4895263 0.44118318 0.50071 0.20479336 0.84721774 0.83703667 2.725577
-0.6324968 2.3210678 0.5663816 2.1399615 2.8207505 1.256985 0.9033059 2.4981735
2.0920522 1.7964075 1.2134305 3.1754656 2.3595843 1.4736316 2.5485494 1.9156191
1.7129108 3.3244023 0.780119 2.484072 0.9963243 0.7354986 2.3970714 1.4523492
1.3373891 2.0701122 2.368727 2.7296767 -0.03612027 2.7687888 2.5749674 0.6505407
2.6129072 2.5920365 0.26989362 2.506475 2.9834301 0.7306083 0.948668 2.646906
2.7768734 1.7167114 1.0462508 3.1325324 3.4704869 -0.45163286 1.1398146 2.7919471
2.3503337 -0.11460909 2.3142507 1.3977227 0.6637255 2.8051395 0.0047928593 0.41613314
3.279366 0.9363518 -0.499065 2.4028707 1.3227029 0.15698488 0.24536356 0.19762398
-1.0410105 2.0663636 1.2230214 0.85100937 0.5542614 2.5476224 2.7294893 0.5650776
1.0399985 2.6389303 1.044424 2.8387918 0.810992 3.0714755 0.42363906 0.6977682
1.833429 -0.2233966 1.3376472 2.6425529 2.5036087 2.7587016 1.2224593 2.992618
2.922065 0.5449406 2.1446679 2.40413 1.7542503 2.5463057 2.6151626 3.2735386
-0.72131974 0.6616562 1.1493059 3.1113029 1.9185697 2.671494 1.0410562 0.5167204
2.5979474 1.1737138 2.8830297 0.18159725 3.2384446 2.7579722 2.8379152 0.41380766

bn3.running_var f4 [128]
00000000: e81e 0a42 fb5d 9240 3a6a cb41 fcf9 ea3f
00000010: da28 a640 1e61 af41 4a32 7840 393a 1042
00000020: 9d25 3040 324f 2942 1232 d340 edb2 9740
00000030: f54a d340 bac4 d240 278e 8f40 5c71 2142
00000040: ed63 c240 9912 a541 67aa 4e40 198a 6340
00000050: 0443 dc41 99d2 c240 ea75 c940 1812 d841
00000060: 9807 8240 3a00 dd40 bd5a a840 6c99 fb41
00000070: 03c0 bf41 dfb0 6640 2e9d ad41 8855 8a41
00000080: de41 a140 d39f f341 86c5 bb40 fe4c ba41
00000090: 4a18 6840 6385 d140 bac1 ec41 aae2 b740
000000a0: a0aa a040 4e72 9141 4311 c941 c655 c441
000000b0: cedb 1241 7c3c fd41 6056 0242 9c37 ae40
000000c0: cea2 ef41 6b09 dc41 b076 de40 12fe af41
000000d0: dc2c 0742 03f6 8a40 1807 9740 8f90 f141
000000e0: 74b0 e741 bbca af41 0f04 be40 b87d 1242
000000f0: 53a5 e041 f089 0041 fafd 2f40 e2b9 f041
00000100: d649 a141 1a31 8740 12d6 d941 7e74 6c41
00000110: 4670 9140 88f8 d641 f69c b940 8cfa 9d40
00000120: 97e2 c041 5782 a340 d428 e040 88bb d841
00000130: c32f 7240 3df2 1341 a8df 9140 b08c be40
00000140: 7180 6841 c649 c441 e131 7640 f985 c740
00000150: e506 cf40 0cb3 cc41 f601 ea41 866d bc40
00000160: f4ff 9440 8a66 e841 704c cb40 349f 0e42
00000170: 5fdb d640 074b 0242 3d39 0141 06e7 e340
00000180: 030e 4040 22b6 d440 1ca3 c740 34b2 e841
00000190: 95c1 b741 120e a941 7208 6740 d2a2 e941
000001a0: a004 ed41 cfea c140 fd31 d341 2e0b a941
000001b0: 7117 a141 7cb3 ab40 49a1 0542 9c77 f141
000001c0: 59df 0941 0b26 9840 ec8a 7540 599d ff41
000001d0: 1d0a 9d41 9b08 fe41 43c4 a740 b6ac 5940
000001e0: 27b9 d341 ff0a 6340 cf9e 0442 3718 d840
000001f0: 6d3d 1542 d226 d441 c7e2 de41 e429 cd40
34.53018 4.573972 25.426868 1.8357539 5.192487 21.92242 3.8780694 36.056858
2.7522957 42.32734 6.599862 4.7405915 6.6029 6.5865145 4.4861026 40.360703
6.074698 20.63408 3.2291505 3.5553038 27.532722 6.0882077 6.295644 27.008835
4.063427 6.9062777 5.2610765 31.449913 23.968756 3.6045454 21.701748 17.291763
5.0392904 30.45304 5.8678617 23.287594 3.6264825 6.5475326 29.594593 5.746419
5.0208282 18.180813 25.133429 24.541882 9.178663 31.654533 32.58435 5.4442883
29.954494 27.504599 6.951988 21.999058 33.793808 4.3425307 4.719616 30.195585
28.961159 21.97399 5.9379954 36.622772 28.080725 8.033676 2.7498765 30.090763
20.161053 4.224744 27.229527 14.77844 4.5449553 26.871353 5.8004103 4.9368343
24.11064 5.1096606 7.004984 27.091568 3.7841651 9.24664 4.558552 5.954674
14.531358 24.536022 3.8467944 6.235104 6.4695916 25.587425 29.250957 5.8883696
4.6562443 29.050068 6.3530807 35.65547 6.7142787 32.57327 8.076474 7.121951
3.0008552 6.647233 6.238661 29.087013 22.969522 21.13187 3.6098905 29.204502
29.627258 6.059913 26.399408 21.130459 20.136446 5.3656597 33.407505 30.183403
8.617028 4.754644 3.836604 31.95183 19.629938 31.754202 5.2427077 3.4011664
26.465406 3.5475461 33.155087 6.752956 37.309986 26.518955 27.860731 6.4113636
