ML/weights/train_single_subject_myo_model.pth (torch, 430502 bytes, 22 tensors)

conv1.weight f4 [32, 8, 5, 3]
-0.016304187 -0.058148094 0.09851781 0.002741369 0.008657867 0.13176717 0.00332022 -0.08620062
0.14186908 0.07676059 -0.07475753 0.05953491 -0.004145247 -0.022951052 0.022006135 0.13085659
0.09517572 0.15600286 0.009696092 0.07961548 0.12049112 0.11732218 0.03871751 0.00828944
-0.051602956 0.09039007 0.09726848 0.09322729 0.053221542 0.07554312 -0.022165729 0.07894293
0.0078002284 -0.02392863 0.118376896 0.032668103 0.05935288 -0.010282803 0.06369102 0.08175428
-0.017217413 0.03818109 0.058556285 0.06317492 0.027000064 -0.02031217 0.003004525 -0.009191049
-0.043201495 -0.07705268 0.013058214 -0.06777546 -0.037924986 -0.03128345 -0.0018401764 -0.15081045
-0.13407521 -0.08309268 -0.15430595 0.01705587 0.12723209 0.0071137454 0.13652553 0.074497454
0.11944797 -0.032896083 0.025788428 -0.022182293 0.03561193 0.034592852 -0.103803426 0.028075095
0.08737599 0.0011935144 -0.011186182 -0.001510132 0.08708492 0.11087811 0.034022745 0.06073374
0.0018223529 0.05659669 0.06013071 0.13814245 0.020787943 -0.10066955 0.13177925 -0.010053901
-0.119718336 0.103201225 0.025415005 0.048044402 0.092954785 0.056444433 0.09379451 0.08174357
0.03584048 -0.06996875 -0.0008914996 0.11714203 0.08690832 0.04553288 -0.03174696 -0.044903453
-0.03533495 -0.03306526 0.04188003 0.051516112 -0.032651775 0.021790417 -0.012999505 -0.019640846
-0.00518117 0.01649945 -0.011690239 -0.16711968 0.057694465 -0.14570318 -0.14094633 -0.030324923
0.08357055 -0.09465466 0.09216012 0.0833199 -0.1041044 0.18892942 0.086780965 -0.004580951
0.14239663 0.03405858 -0.094657935 0.003955008 0.0025754948 0.06511777 0.07221252 0.017575992
0.018020695 0.16298732 -0.00049730256 0.08702325 0.03699821 0.06660546 -0.007047656 0.13159567
0.005197938 0.10395528 0.16758873 0.023430198 -0.0027154568 0.05032702 -0.01728111 -0.052910145
0.030153578 0.09637212 0.0008111608 0.10558979 -0.03724566 0.012913985 0.16034219 -0.008923062
0.040659055 0.12623002 -0.06201696 0.08336097 0.15849008 -0.0020336648 -0.09281442 -0.09892364
0.007566 -0.07747135 -0.1055433 0.042289495 -0.12540196 -0.035242744 0.024753077 -0.0269483
-0.059550237 -0.0061750533 -0.057984248 -0.13404676 0.11677428 0.019108916 0.074449606 0.10277639
0.02654091 0.12896764 0.108440556 0.058810428 -0.020461725 0.055561945 -0.09194195 0.1274201
0.11907879 -0.11068883 0.06275014 0.05233378 0.0041616186 0.104236424 0.04052159 0.07413285
0.14609742 3.899402e-05 0.09408 0.1822885 0.09147412 0.08578868 0.17536807 0.08090155
-0.10658493 0.21295118 0.037836228 0.046044514 0.061695307 0.13931996 -0.044793997 0.04848272
0.037984435 -0.037830926 0.0046746386 0.079454914 0.031930767 0.08077926 0.13996936 0.04115374
0.1039954 0.03486661 -0.110958956 -0.03393556 0.0072127325 -0.08535457 0.120703794 -0.012690297
-0.031133616 -0.05367089 -0.030343533 -0.06751127 0.1233039 -0.034396593 -0.12741286 0.10957496
-0.0073855747 0.08050074 -0.02619877 -0.0026745638 0.018957961 -0.04701658 -0.004146926 0.02719228
0.0074091647 -0.03140588 -0.033310674 0.010789572 0.11094043 0.040645383 -0.030589968 -0.018174563
00000000: 5c90 85bc b22c 6ebd b5c3 c93d 8aa8 333b
00000010: bad9 0d3c f9ed 063e 0c98 593b f389 b0bd
00000020: 2146 113e a834 9d3d 7a1a 99bd e1da 733d
00000030: dad4 87bb d803 bcbc 3646 b43c 45ff 053e
00000040: 7deb c23d 37bf 1f3e 5cdc 1e3c 710d a33d
00000050: 0cc4 f63d 9c46 f03d 4096 1e3d 6ed0 073c
00000060: 9f5d 53bd 6e1e b93d b234 c73d f3ed be3d
00000070: d5fe 593d 5ab6 9a3d e794 b5bc d5ac a13d
00000080: 0f99 ff3b f905 c4bc 966f f23d fdce 053d
00000090: 011c 733d 3479 28bc 7070 823d ca6e a73d
000000a0: 880b 8dbc c663 1c3d b7d8 6f3d da61 813d
000000b0: 3d2f dd3c b565 a6bc 91e7 443b 0e96 16bc
000000c0: 0df4 30bd cccd 9dbd 1ff2 553c dccd 8abd
000000d0: 3b57 1bbd 1323 00bd 1332 f1ba 0e6e 1abe
000000e0: 034b 09be 7f2c aabd 6102 1ebe c0b8 8b3c
000000f0: 2149 023e 6c1a e93b 59cd 0b3e 1f92 983d
00000100: 23a1 f43d 0bbe 06bd 4142 d33c a4b7 b5bc
00000110: d1dd 113d 3cb1 0d3d e496 d4bd befd e53c
00000120: 2ff2 b23d b36f 9c3a 3f46 37bc 9fef c5ba
00000130: 9459 b23d 1014 e33d 6f5b 0b3d f1c3 783d
00000140: 04dc ee3a eed1 673d 9f4b 763d 3775 0d3e
00000150: 7a4b aa3c d62b cebd 24f1 063e 1eb9 24bc
00000160: e32e f5bd 2a5b d33d 2133 d03c 35ca 443d
00000170: 145f be3d 4732 673d 5617 c03d 2c69 a73d
00000180: 78cd 123d c74b 8fbd 87b3 69ba 29e8 ef3d
00000190: fdfc b13d af80 3a3d 1a09 02bd afec 37bd
000001a0: 61bb 10bd 706f 07bd 658a 2b3d 8f02 533d
000001b0: debd 05bd d181 b23c e0fb 54bc d7e5 a0bc
000001c0: cec6 a9bb db29 873c 6b88 3fbc 6c21 2bbe
000001d0: 0851 6c3d 3733 15be 3c54 10be f96b f8bc
000001e0: 0927 ab3d 4dda c1bd 72be bc3d a0a3 aa3d
000001f0: b034 d5bd b776 413e 38ba b13d cd1b 96bb
00000200: 6cd0 113e 0281 0b3d 05dc c1bd 0399 813b
00000210: a2c9 283b 775c 853d 28e4 933d 87fb 8f3c
00000220: 23a0 933c 26e6 263e 695d 02ba 3f39 b23d
00000230: 6f8b 173d 7268 883d 06f0 e6bb 04c1 063e
00000240: 7753 aa3b 81e6 d43d 619c 2b3e b0f0 bf3c
00000250: cef5 31bb b523 4e3d 1d91 8dbc 4fb8 58bd
00000260: a304 f73c bf5e c53d 14a4 543a 763f d83d
00000270: e88e 18bd 2e95 533c be30 243e 0932 12bc
00000280: 1c8a 263d 7142 013e 7f05 7ebd 28b9 aa3d
00000290: 394b 223e 3c47 05bb 7d15 bebd 7a98 cabd
000002a0: 35ec f73b 4da9 9ebd 1627 d8bd c037 2d3d
000002b0: 5f69 00be b25a 10bd f7c6 ca3c aec2 dcbc
000002c0: f3ea 73bd 1a58 cabb e480 6dbd 8e43 09be
000002d0: 5b27 ef3d 4d8a 9c3c 0979 983d 6e7c d23d
000002e0: 536c d93c 1810 043e 1516 de3d 34e3 703d
000002f0: 599f a7bc ec94 633d 104c bcbd 6a7a 023e
00000300: 95df f33d d3b0 e2bd 2583 803d f25b 563d
00000310: 305e 883b e879 d53d f7f9 253d f7d2 973d
00000320: 909a 153e 838d 2338 04ad c03d d6a9 3a3e
00000330: c956 bb3d fab1 af3d b093 333e b6af a53d
00000340: 3349 dabd e00f 5a3e 29fa 1a3d 2c99 3c3d
00000350: 38b4 7c3d e4a9 0e3e e979 37bd d195 463d
00000360: 9195 1b3d 9af4 1abd b62d 993b 42b9 a23d
00000370: d6c9 023d 996f a53d 2154 0f3e d390 283d
00000380: 8afb d43d 4ad0 0e3d 733e e3bd 0400 0bbd
00000390: c958 ec3b 60ce aebd 8d33 f73d f7ea 4fbc
000003a0: ed0b ffbc 02d6 5bbd 0093 f8bc 5943 8abd
000003b0: c186 fc3d 71e3 0cbd 8478 02be d668 e03d
000003c0: b102 f2bb 92dd a43d ce9e d6bc bc47 2fbb
000003d0: ba4d 9b3c 7594 40bd f0e2 87bb 58c2 de3c
000003e0: 94c8 f23b 74a3 00bd c670 08bd bfc6 303c
000003f0: bc34 e33d c67b 263d d097 fabc d2e2 94bc

conv1.bias f4 [32]
0.07240209 -0.02158646 0.035828944 0.05766152 0.050576013 -0.038949948 0.023310909 0.07002023
0.0005188326 0.060127836 -6.93288e-06 -0.017195465 0.024137644 0.04695261 -0.009558526 0.03724752
0.03652381 0.03859235 -0.06581686 -0.0032522888 0.077853635 -0.06124544 -0.03356022 -0.051133048
0.045742746 -0.08559549 -0.061318934 0.06162668 -0.02134892 -0.0051376065 0.09378619 0.10363581
00000000: 8c47 943d 16d6 b0bc 5fc1 123d 7c2e 6c3d
00000010: cb28 4f3d fb89 1fbd 85f6 be3c c466 8f3d
00000020: 4402 083a 9b48 763d fca0 e8b6 81dd 8cbc
00000030: 4fbc c53c 6151 403d 5d9b 1cbc db90 183d
00000040: fe99 153d 0313 1e3d fdca 86bd 5a24 55bb
00000050: ba71 9f3d 80dc 7abd 7176 09bd e370 51bd
00000060: bf5c 3b3d b04c afbd 9029 7bbd 426c 7c3d
00000070: eee3 aebc 5e59 a8bb f912 c03d 033f d43d

bn1.weight f4 [32]
0.93755573 0.97853667 1.0662296 1.020056 0.92403454 0.9677273 0.8859546 0.96364653
0.97691804 0.98133945 0.95052177 1.0123781 1.0263628 1.0108055 0.947173 0.9764969
1.0383264 0.90536445 0.9900272 0.9298012 0.8529532 0.9760117 0.8968914 1.0841414
0.93781525 1.0280375 1.0953469 0.96791714 1.0974886 0.9997586 0.9951514 1.0679485
00000000: a703 703f 6181 7a3f 367a 883f 3291 823f
00000010: 878d 6c3f fabc 773f eccd 623f 8ab1 763f
00000020: 4d17 7a3f 1039 7b3f 6555 733f 9b95 813f
00000030: db5f 833f 1362 813f ee79 723f b3fb 793f
00000040: e1e7 843f f7c5 673f 6c72 7d3f 7407 6e3f
00000050: 245b 5a3f e7db 793f ad9a 653f 25c5 8a3f
00000060: a914 703f bc96 833f 5434 8c3f 6bc9 773f
00000070: 827a 8c3f 2ef0 7f3f 3ec2 7e3f 89b2 883f

bn1.bias f4 [32]
-0.04237641 -0.04882391 0.0089072315 -0.11654852 -0.01783457 0.0017619532 -0.10589055 0.040174823
-0.036080316 -0.07984634 -0.021170601 0.04616454 -0.0022993395 -0.013973552 -0.028406767 0.0075172097
-0.0016842827 -0.11231317 0.01677514 -0.0667367 0.025521213 -0.024202216 -0.121591024 0.011476595
-0.028415838 -0.04995656 -0.056435946 -0.03055423 0.045444265 -0.040017948 -0.08791949 0.04422932
00000000: e392 2dbd 95fb 47bd a3ef 113c feb0 eebd
00000010: ce19 92bc 57f1 e63a 25dd d8bd 5b8e 243d
00000020: f4c8 13bd 7a86 a3bd f86d adbc 0717 3d3d
00000030: 84b0 16bb 53f1 64bc 4fb5 e8bc ed52 f63b
00000040: 26c3 dcba 7304 e6bd 056c 893c 40ad 88bd
00000050: dd11 d13c ba43 c6bc b704 f9bd 5408 3c3c
00000060: 55c8 e8bc 409f 4cbd 6129 67bd dd4c fabc
00000070: c423 3a3d dce9 23bd 220f b4bd ce29 353d

bn1.running_mean f4 [32]
0.13067372 0.06156102 -0.062453005 0.059585977 0.103577405 -0.033684734 0.052191846 0.11475597
0.08574147 0.0487583 0.08447511 0.023693733 0.10706861 0.07650317 -0.0760597 0.118179545
0.036186006 -0.077607974 -0.05526402 0.027001759 0.11515781 -0.040220734 0.022017172 -0.043279484
0.14922288 -0.11227433 -0.09376677 0.081807695 -0.042321444 0.07023201 0.04895136 0.049127582
00000000: 55cf 053e 6827 7c3d b9ce 7fbd 6d10 743d
00000010: 6420 d43d 01f9 09bd 1ec7 553d 2e05 eb3d
00000020: 3999 af3d c8b6 473d 4901 ad3d 5c19 c23c
00000030: ca46 db3d b2ad 9c3d 30c5 9bbd 1e08 f23d
00000040: c737 143d eef0 9ebd 865c 62bd cb32 dd3c
00000050: dcd7 eb3d 7fbe 24bd 5b5d b43c d445 31bd
00000060: e2cd 183e 15f0 e5bd cb08 c0bd cb8a a73d
00000070: 4059 2dbd cdd5 8f3d 3981 483d 013a 493d

bn1.running_var f4 [32]
2.5893137 5.188813 4.7680655 0.5109241 1.5665102 1.0246059 1.3872519 1.7256422
3.4544756 2.3580887 3.0953822 1.3270097 3.325405 1.5567402 2.5207484 3.1958137
1.2721307 4.0498466 0.88087016 0.82273144 2.256054 1.0866649 1.7614803 2.864132
4.708657 1.5136007 1.0161074 0.5901517 0.9302646 2.6163228 1.0644444 1.8736135
00000000: 51b7 2540 c20a a640 fe93 9840 eccb 023f
00000010: 6883 c83f 4926 833f 7891 b13f d8e1 dc3f
00000020: 2116 5d40 edea 1640 be1a 4640 74db a93f
00000030: 6fd3 5440 4343 c73f f153 2140 3688 4c40
00000040: 2ed5 a23f 5898 8140 b580 613f 879e 523f
00000050: 3063 1040 d617 8b3f 3078 e13f f04d 3740
00000060: 51ad 9640 abbd c13f cf0f 823f 2f14 173f
00000070: d225 6e3f d571 2740 b73f 883f 91d2 ef3f

conv2.weight f4 [64, 32, 3, 3]
0.05264043 -0.035759564 -0.059448726 -0.045384426 -0.028438214 -0.07442542 0.04879105 0.047104552
-0.05607534 -0.023373147 0.015869869 -0.07200109 -0.030225772 -0.02581133 -0.063141 -0.0009075462
-0.050428074 -0.11338851 -0.041693553 -0.045885637 0.12010198 -0.038902715 0.009437869 0.0025036798
-0.13778092 -0.0128617175 0.0015352197 -0.085485764 -0.029599065 -0.021756135 -0.037438747 -0.05114112
-0.08355698 -0.079721116 -0.08403679 -0.029616393 0.05649583 0.0767537 -0.010176755 -0.020948954
-0.006784353 0.047002483 0.004276456 0.06309751 7.048624e-05 0.0040026396 -0.04354499 0.054356173
0.008307164 -0.043463305 0.033007555 0.042538997 0.04992715 0.04570381 0.021436438 0.04324887
0.037422594 -0.015690887 0.008248135 0.007326991 -0.068543024 -0.013045411 0.014295046 0.04121648
-0.04706012 -0.061793774 -0.043442294 0.03340025 -0.018225087 0.05082117 0.028133078 0.039896797
-0.003000869 0.05705605 -0.01099006 0.056851313 0.08932156 -0.023137657 0.035121836 0.10708983
0.037835963 0.0062941653 -0.07705431 0.014576617 -0.07055925 -0.0974494 0.073810786 -0.003837025
-0.05204384 -0.0031681585 -0.004645869 0.058932178 -0.09587634 -0.007871459 0.06262205 -0.03427373
0.018989729 0.08754766 0.0024051794 0.006500816 0.11688503 -0.059632964 0.06156029 0.105293944
-0.033600558 0.055670217 0.13208951 -0.0070446627 0.033772565 -0.04539187 -0.011113882 0.055056226
-0.029536564 -0.08794832 -0.0086472 -0.007899135 -0.11851927 -0.04182384 0.083163 0.061135203
0.0035251847 0.028957915 0.06699029 -0.1501988 -0.049422584 0.08990175 -0.022001598 -0.021321492
0.09614438 -0.05388534 -0.0061112745 0.0221898 -0.04759638 -0.028175097 0.025868097 0.03520802
-0.0032173896 -0.0497685 -0.024076194 0.049108405 -0.052072383 0.07419164 0.065507926 -0.09214192
-0.089876816 0.037662365 0.06284469 -0.098125465 0.031889476 0.006488195 -0.028791314 0.00044505528
0.07205356 -0.032314148 -0.08232519 -0.073587134 0.0013834514 -0.031876083 -0.024426911 -0.042907182
-0.0319222 -0.04323092 0.08023344 0.11024937 0.066602856 -0.018749554 0.041045386 -0.016884318
-0.047878273 -0.02103004 -0.03185672 0.015947798 0.03163553 0.03610303 0.03438002 0.010280653
0.007241884 -0.025882363 -0.0006646586 0.007845722 -0.0067358776 -0.01705677 -0.014589807 -0.09307694
0.039804976 0.016443763 -0.08171496 0.063548826 -0.04171908 -0.08662282 0.0035460577 0.008369543
-0.020439899 -0.018968642 -0.069555454 0.01618881 0.0976122 0.052635103 -0.021457132 0.12624708
0.03992099 0.01416414 0.08634827 -0.0062884917 -0.024235362 -0.05648412 -0.015049515 -0.03777719
-0.10303604 0.115209095 0.010781954 -0.105052665 0.07696272 -0.012916659 -0.10314267 0.021394253
-0.038586643 0.038184747 -0.063106425 0.017381916 0.017598998 -0.023821095 0.029444553 0.09652197
-0.01376206 0.03636764 0.042883065 0.099787205 -0.022543086 -0.017304152 0.039029665 -0.016580455
0.0008191257 0.049920116 -0.1318961 -0.08724075 0.08012317 -0.11311303 -0.020515492 0.05921307
-0.111822285 -0.0017471572 0.0718292 -0.1041094 -0.013802032 -0.0072496803 -0.053644393 -0.021291992
0.08574178 -0.1011812 -0.08268447 0.012048385 -0.1607077 -0.02495116 0.02406971 -0.10259049
00000000: 7e9d 573d 9f78 12bd 8280 73bd 05e5 39bd
00000010: 42f7 e8bc 5b6c 98bd 20d9 473d b4f0 403d
00000020: 41af 65bd 0b79 bfbc 8701 823c 4f75 93bd
00000030: 0a9c f7bc 4872 d3bc 1250 81bd 65e8 6dba
00000040: ab8d 4ebd 3c38 e8bd dcc6 2abd 94f2 3bbd
00000050: 07f8 f53d 7458 1fbd 4ba1 1a3c c714 243b
00000060: 7116 0dbe f4b9 52bc 6d39 c93a 2913 afbd
00000070: bd79 f2bc ec39 b2bc 5f59 19bd 5a79 51bd
00000080: ec1f abbd d344 a3bd 7b1b acbd 149e f2bc
00000090: 2c68 673d 0b31 9d3d 67bc 26bc 249d abbc
000000a0: 474f debb ad85 403d 8321 8c3b 4439 813d
000000b0: 03d2 9338 9328 833b 3b5c 32bd 94a4 5e3d
000000c0: c51a 083c 9406 32bd ee32 073d 5f3d 2e3d
000000d0: 6980 4c3d eb33 3b3d 789b af3c ba25 313d
000000e0: 6f48 193d 2d8a 80bc 3023 073c 4117 f03b
000000f0: 4960 8cbd 6bbc 55bc c535 6a3c 9dd2 283d
00000100: 1dc2 40bd 781b 7dbd 8cf0 31bd b3ce 083d
00000110: c74c 95bc dc29 503d 5777 e63c d36a 233d
00000120: 3aaa 44bb 9bb3 693d a70f 34bc ecdc 683d
00000130: 39ee b63d 2f8b bdbc eadb 0f3d ea51 db3d
00000140: e2f9 1a3d 493f ce3b a6ce 9dbd c3d2 6e3c
00000150: 5e81 90bd 8d93 c7bd 1c2a 973d 9976 7bbb
00000160: ec2b 55bd e1a0 4fbb 603c 98bb de62 713d
00000170: d15a c4bd 4bf7 00bc fd3f 803d 9c62 0cbd
00000180: 5990 9b3c 304c b33d 37a0 1d3b cc04 d53b
00000190: 6b61 ef3d b241 74bd a526 7c3d 5aa4 d73d
000001a0: bda0 09bd 7406 643d 7942 073e ead6 e6bb
000001b0: 1a55 0a3d d3ec 39bd 0017 36bc a382 613d
000001c0: aaf6 f1bc 401e b4bd fcac 0dbc 606b 01bc
000001d0: 3bba f2bd 7a4f 2bbd 5d51 aa3d e868 7a3d
000001e0: c906 673b 2639 ed3c 3532 893d b7cd 19be
000001f0: 566f 4abd 691e b83d b23c b4bc 69aa aebc
00000200: 58e7 c43d e0b6 5cbd 1641 c8bb 62c7 b53c
00000210: 6cf4 42bd 76cf e6bc 55e9 d33c 4936 103d
00000220: d7da 52bb 0eda 4bbd 703b c5bc e525 493d
00000230: da49 55bd c9f1 973d 0529 863d e7b4 bcbd
00000240: 5611 b8bd da43 1a3d b8b4 803d 01f6 c8bd
00000250: 8a9e 023d ed9a d43b c3db ebbc 4f56 e939
00000260: d190 933d d75b 04bd 1c9a a8bd dab4 96bd
00000270: ed54 b53a 7f90 02bd f21a c8bc 71bf 2fbd
00000280: dac0 02bd e812 31bd 6e51 a43d 6cca e13d
00000290: 1467 883d aa98 99bc 351f 283d fb50 8abc
000002a0: 021c 44bd 3147 acbc 317c 02bd f5a4 823c
000002b0: 4294 013d c5e0 133d 10d2 0c3d 2f70 283c
000002c0: 534d ed3b 4007 d4bc 7c3c 2eba 588b 003c
000002d0: a3b8 dcbb a4ba 8bbc 160a 6fbc 1f9f bebd
000002e0: 8b0a 233d 12b5 863c 2c5a a7bd e325 823d
000002f0: a0e1 2abd 4e67 b1bd fa64 683b 6820 093c
00000300: 9371 a7bc 2064 9bbc 1773 8ebd 659e 843c
00000310: e8e8 c73d e897 573d dec6 afbc ea46 013e
00000320: 3184 233d b610 683c 5dd7 b03d b10f cebb
00000330: 3d89 c6bc e55b 67bd 3e92 76bc 41bc 1abd
00000340: 8f04 d3bd bff2 eb3d cba6 303c da25 d7bd
00000350: a19e 9d3d 65a0 53bc 773c d3bd 0043 af3c
00000360: 070d 1ebd 9c67 1c3d f13d 81bd 8564 8e3c
00000370: c62b 903c 7524 c3bc b435 f13c 50ad c53d
00000380: 437a 61bc 3cf6 143d 27a6 2f3d 3c5d cc3d
00000390: 47ac b8bc 70c1 8dbc 92dd 1f3d bcd3 87bc
000003a0: 98ba 563a 0979 4c3d c50f 07be 47ab b2bd
000003b0: 9e17 a43d cea7 e7bd 1b10 a8bc 6789 723d
000003c0: 1503 e5bd de00 e5ba 301b 933d 4f37 d5bd
000003d0: eb21 62bc ba8e edbb 39ba 5bbd 8b6c aebc
000003e0: 6399 af3d 1738 cfbd 7a56 a9bd 9766 453c
000003f0: 8f90 24be 6066 ccbc d72d c53c f61a d2bd

conv2.bias f4 [64]
-0.05508227 -0.05810841 0.02953814 0.045430046 0.005969101 0.034041345 -0.049494065 -0.043670334
0.026174147 -0.02155063 -0.02856003 -0.008444083 0.031637363 0.024367485 0.01372208 -0.017258992
0.04545494 -0.025771607 0.011476923 -0.0063331737 -0.039355494 -0.031904627 0.021571225 0.05651242
0.042402018 0.022129042 0.0009422594 0.04219046 -0.014088458 0.015222144 0.012204445 -0.024748307
-0.012638742 -0.057930708 -0.051387023 -0.053250227 0.016613254 0.031303298 -0.05644623 -0.03194077
0.0487494 -0.053206574 0.00804107 0.04375937 -0.0026124779 -0.038699057 -0.04275924 0.0062083043
-0.014596534 0.044102896 -0.04837993 0.052589823 0.053096604 0.009136834 0.03424833 0.05385945
-0.014425127 0.019244118 -0.029426405 -0.04560648 0.038516123 -0.051725503 0.035025567 -0.008437408
00000000: f29d 61bd 1603 6ebd f8f9 f13c db14 3a3d
00000010: 7398 c33b f06e 0b3d 4aba 4abd aadf 32bd
00000020: 2a6b d63c f28a b0bc b9f6 e9bc 0d59 0abc
00000030: 2e96 013d 529e c73c 93d2 603c bb62 8dbc
00000040: f62e 3a3d fa1e d3bc b409 3c3c 8386 cfbb
00000050: 3a33 21bd 6dae 02bd 23b6 b03c 9179 673d
00000060: bdad 2d3d f747 b53c f501 773a e7cf 2c3d
00000070: 47d3 66bc 4d66 793c 27f5 473c f6bc cabc
00000080: ba12 4fbc c048 6dbd 337b 52bd e91c 5abd
00000090: 8518 883c e337 003d 2934 67bd 53d4 02bd
000000a0: 73ad 473d 23ef 59bd b1be 033c 063d 333d
000000b0: 1b36 2bbb e782 1ebd 5024 2fbd 086f cb3b
000000c0: 4d26 6fbc 3da5 343d 092a 46bd 6d68 573d
000000d0: d37b 593d a9b2 153c fa47 0c3d ba9b 5c3d
000000e0: 5e57 6cbc d7a5 9d3c a50f f1bc dccd 3abd
000000f0: 15c3 1d3d 1fde 53bd f876 0f3d 0e3d 0abc

bn2.weight f4 [64]
1.0005494 0.85669386 0.99686843 0.98178667 0.95281017 0.98573 1.1471108 0.95575404
0.99570227 0.98931473 0.9906282 0.8851952 0.866095 1.0088122 1.0030303 0.99802405
0.9173446 0.96387374 0.93409616 1.0719955 0.9178984 1.1727084 0.9698178 0.96174693
1.0012282 1.00611 0.9320396 0.9913396 1.0030549 0.93818 1.1779613 1.2004381
1.0030365 1.2001503 1.0734519 0.9145462 0.90718776 0.93681777 1.0763996 0.97920793
0.9834266 1.1223199 0.92002124 0.9592979 1.0146188 1.0042009 1.0061228 1.0988632
0.9911432 0.94215757 0.9511661 1.0000554 0.9929761 1.0071894 1.0157762 0.969377
0.9964405 0.9374435 0.9791245 0.9976753 1.0286698 0.99196047 0.95215625 0.9562688
00000000: 0112 803f 4a50 5b3f c532 7f3f 5f56 7b3f
00000010: 5eeb 733f cd58 7c3f 87d4 923f 4cac 743f
00000020: 58e6 7e3f bb43 7d3f cf99 7d3f 279c 623f
00000030: 67b8 5d3f c220 813f 4c63 803f 817e 7f3f
00000040: 19d7 6a3f 6ec0 763f ed20 6f3f 2637 893f
00000050: 64fb 6a3f 4f1b 963f fb45 783f 0c35 763f
00000060: 3f28 803f 36c8 803f 269a 6e3f 6fc8 7d3f
00000070: 1a64 803f 912c 703f 70c7 963f f5a7 993f
00000080: 8063 803f 869e 993f df66 893f b31f 6a3f
00000090: 753d 683f 4ad3 6f3f 76c7 893f 5fad 7a3f
000000a0: d8c1 7b3f 2ea8 8f3f 8386 6b3f 8c94 753f
000000b0: 07df 813f a889 803f a2c8 803f 8da7 8c3f
000000c0: 90bb 7d3f 3d31 713f 9f7f 733f d101 803f
000000d0: af33 7e3f 95eb 803f f404 823f 1729 783f
000000e0: b916 7f3f 4cfc 6f3f e7a7 7a3f a667 7f3f
000000f0: 74ab 833f 1ff1 7d3f 83c0 733f 08ce 743f

bn2.bias f4 [64]
-0.03799888 -0.054552104 -0.058413487 -0.060644638 -0.009408146 -0.06281964 -0.05083469 -0.03146939
-0.04629774 0.014057904 -0.006703753 -0.06663425 -0.102632076 0.001478691 -0.030608345 -0.064328276
-0.07725748 0.025409838 0.0062547047 -0.011790866 -0.14027214 0.00023564571 -0.08024223 -0.09922202
-0.048744682 -0.057048447 -0.07490198 -0.07242177 -0.07197614 -0.061271943 -0.038016923 -0.0055517973
-0.06232535 -0.011202155 -0.021229055 -0.018575862 -0.046351526 -0.03152774 -0.06902072 -0.070859775
-0.06162483 -0.03706032 -0.052049085 -0.074226215 -0.13650407 -0.04186627 -0.07129372 -0.043251224
-0.09772313 -0.10127664 0.047789168 -0.07640068 -0.07138795 -0.060615584 -0.091985375 -0.04978622
-0.06629821 -0.038979586 -0.036645107 -0.08194622 -0.08209915 0.024097797 -0.105143085 -0.043430198
00000000: b7a4 1bbd 0772 5fbd fb42 6fbd 8366 78bd
00000010: a024 1abc 95a7 80bd 0938 50bd 0ce6 00bd
00000020: b3a2 3dbd 1f53 663c 28ab dbbb 8a77 88bd
00000030: c430 d2bd a3d0 c13a 5abe fabc 8bbe 83bd
00000040: 2b39 9ebd 4b28 d03c 44f4 cc3b 7a2e 41bc
00000050: 80a3 0fbe aa17 7739 0a56 a4bd ea34 cbbd
00000060: 81a8 47bd a2ab 69bd 3666 99bd dd51 94bd
00000070: 3a68 93bd 4af8 7abd a2b7 1bbd daeb b5bb
00000080: de48 7fbd 3e89 37bc 8ee8 adbc 682c 98bc
00000090: 19db 3dbd 3b23 01bd bc5a 8dbd ee1e 91bd
000000a0: 516a 7cbd 90cc 17bd 6c31 55bd ea03 98bd
000000b0: b9c7 0bbe f77b 2bbd 7102 92bd 3228 31bd
000000c0: 1023 c8bd 216a cfbd 93be 433d f677 9cbd
000000d0: d833 92bd 0c48 78bd d462 bcbd a3ec 4bbd
000000e0: 5bc7 87bd 0fa9 1fbd 2e19 16bd 6bd3 a7bd
000000f0: 9923 a8bd be68 c53c 4255 d7bd dde3 31bd

bn2.running_mean f4 [64]
-0.49622336 -0.93720084 -0.6806652 -0.722256 -1.2510988 -1.1261377 -1.3604754 -1.2007358
-1.349442 -2.9755104 -1.4938605 -0.47202912 -0.851531 -2.3793998 -0.69118017 -1.1052366
-1.0002573 -0.8869194 -0.8268857 -1.2463986 -0.06059638 -1.5761471 -0.17304194 1.5247349
-1.0349282 -1.085238 0.2238034 -0.4425665 -0.7248723 -1.379662 -1.6590483 -0.6373275
-1.1379044 -1.4855826 -1.4355896 -1.6373751 -0.53256536 -0.42239216 -1.2327219 -1.1980836
-1.247261 -1.1749669 -1.4660468 -0.85320544 -0.20467755 -0.65265054 -0.4408638 -0.95530516
-1.237422 -0.7942551 -0.5402661 -0.28947407 -0.36291865 -0.33847484 -0.5774303 -0.6273518
-0.5961824 -0.7875183 -1.1121753 -1.1271546 -0.48485383 -1.3774999 -1.1760647 -1.007103
00000000: fd10 febe 65ec 6fbf 1340 2ebf c5e5 38bf
00000010: 0124 a0bf 4825 90bf 0f24 aebf b6b1 99bf
00000020: 84ba acbf c36e 3ec0 d236 bfbf cdad f1be
00000030: f0fd 59bf 1648 18c0 2ff1 30bf 6578 8dbf
00000040: 6e08 80bf 260d 63bf c8ae 53bf fd89 9fbf
00000050: e933 78bd 30bf c9bf e831 31be 832a c33f
00000060: 8778 84bf 14e9 8abf b82c 653e 1498 e2be
00000070: 3b91 39bf c498 b0bf b25b d4bf e527 23bf
00000080: daa6 91bf 9227 bebf 66c1 b7bf 8295 d1bf
00000090: 3456 08bf c943 d8be d5c9 9dbf ce5a 99bf
000000a0: 40a6 9fbf 5165 96bf 6ca7 bbbf ac6b 5abf
000000b0: fe96 51be 1b14 27bf e6b8 e1be e18e 74bf
000000c0: d863 9ebf 4d54 4bbf e14e 0abf f235 94be
000000d0: 79d0 b9be 934c adbe 79d2 13bf 219a 20bf
000000e0: 699f 18bf cd9a 49bf c35b 8ebf 9a46 90bf
000000f0: c33e f8be eb51 b0bf 4a89 96bf c0e8 80bf

bn2.running_var f4 [64]
2.8334582 1.929382 3.7881014 6.199103 1.6008663 3.4075983 2.9279795 3.0406454
9.72212 3.3600652 9.817728 1.8178755 2.945848 5.6234922 4.3893366 6.046905
11.1574745 12.816107 7.77007 3.647134 4.1616354 3.406152 5.389548 3.2984638
2.9668665 6.4906635 12.951219 5.0044084 4.6711774 2.693717 4.5462 2.5824401
7.794103 4.7838864 2.754056 2.2157443 3.6796527 4.725223 3.376426 3.9041576
4.130961 2.9577265 6.5431695 6.435676 5.00435 7.3472886 6.181446 2.9463072
2.7195878 1.6730111 4.441876 3.2346127 6.3189945 7.45703 5.6661277 5.438541
5.2426853 14.666087 3.729935 5.881739 4.995772 12.057846 4.9406185 2.3614736
00000000: 6157 3540 fdf5 f63f 4170 7240 0d5f c640
00000010: 30e9 cc3f 1716 5a40 0464 3b40 ef99 4240
00000020: ce8d 1b41 4f0b 5740 6a15 1d41 25b0 e83f
00000030: c688 3c40 a6f3 b340 7275 8c40 3f80 c140
00000040: 0485 3241 c60e 4d41 6aa4 f840 a56a 6940
00000050: 1e2c 8540 65fe 5940 2d77 ac40 081a 5340
00000060: 24e1 3d40 84b3 cf40 3138 4f41 1d24 a040
00000070: 497a 9540 dc65 2c40 787a 9140 b346 2540
00000080: 4b69 f940 9915 9940 7442 3040 c1ce 0d40
00000090: 6e7f 6b40 0735 9740 5d17 5840 b8dd 7940
000000a0: d530 8440 644b 3d40 a561 d140 0ff1 cd40
000000b0: a323 a040 fd1c eb40 68ce c540 4c90 3c40
000000c0: ba0d 2e40 3a25 d63f d923 8e40 e503 4f40
000000d0: 3435 ca40 fd9f ee40 eb50 b540 8708 ae40
000000e0: 14c4 a740 4ba8 6a41 41b7 6e40 3537 bc40
000000f0: 5ddd 9f40 f0ec 4041 8c19 9e40 6222 1740

conv3.weight f4 [128, 64, 3, 3]
0.08723208 0.0041675423 0.041608732 0.09893936 -0.013674766 0.014800894 0.06562047 0.01843177
0.028812213 0.005852947 0.046661057 0.025228167 0.022058243 0.0350246 0.028007327 0.014955146
0.060032364 0.0077060577 0.02622518 -0.040459882 -0.018229114 0.04634841 0.011495236 -0.04077214
0.046794664 -0.005867195 -0.053145237 0.014565075 0.0041721384 -0.04728531 0.0077889813 0.027728245
-0.04757643 -0.019585421 -0.025500262 -0.0071678916 0.021725329 -0.04501241 0.04997863 -0.044432003
-0.031205466 0.010302993 -0.00019926424 -0.04908836 0.02903709 0.00083229743 0.040419817 0.06827384
0.0126249865 -0.0142206 0.078529805 0.014046722 -0.0059939027 0.06511242 0.067085125 -0.0055696936
0.057100404 0.06963424 0.01790441 0.06845513 0.030640353 -0.04116079 0.06927598 -0.021601437
-0.038770635 0.049893524 0.009007171 -0.033553567 0.018516319 -0.029909 -0.025500426 0.023796365
0.084920675 0.01727683 -0.013586386 0.018579623 0.011449759 -0.018766262 0.08723858 0.021647658
-0.00190183 0.01857213 -0.026385127 0.045175273 0.009316944 -0.039073277 0.04481755 0.021031763
-0.006309368 0.027331857 0.06650939 -0.011635266 0.00728278 0.03989415 -0.029336596 -0.039371643
0.030550333 -0.006450545 0.04994133 0.105265826 0.01102395 0.07546861 0.050886594 -0.027663464
0.016694231 0.02159805 -0.015213989 0.009188025 -0.024293426 -0.045718245 -0.025353186 -0.016888514
0.024582658 0.0011558298 0.008825436 0.009846711 -0.008576143 0.034775242 -0.029676734 0.045968253
-0.009946221 -0.038141403 0.046979267 0.033482995 -0.064032346 0.050717987 0.09753839 0.039344523
0.030988373 0.02329311 -0.008510408 0.035036035 0.019536749 0.042553872 0.0039050917 0.107192986
0.07240217 0.0427139 0.004554969 -0.007348006 0.040649083 0.04727028 0.048720654 0.04377676
0.061130513 0.04205344 0.009625839 0.03141117 0.030919394 -0.06349977 0.056277063 0.0030122064
-0.0055601476 0.03629138 0.090444975 0.024144676 0.060841348 0.056609906 -0.015439971 0.088712074
0.02080217 -0.049830727 0.117109016 0.015105577 -0.004182485 0.06345796 -0.0130191315 -0.017437795
0.07717525 0.00091136084 -0.06285171 0.11145313 -0.10755629 0.06994107 0.10102103 -0.11926525
0.0003377638 0.07916634 -0.0482525 0.046041068 0.07191406 -0.018208394 0.005486031 0.05449561
-0.005152247 -0.034393013 0.0067400765 -0.037162267 -0.06025499 0.052402228 0.01211323 0.1085332
0.04128431 -0.016166227 0.09476998 0.039988812 0.01618992 0.06934326 0.067149244 0.0025818497
-0.053085804 0.037812464 -0.043466806 -0.030878166 0.025183989 0.029404871 0.007324909 -0.01964857
0.034793083 -0.029963216 0.002952393 0.023734873 -0.04069259 0.07484227 0.03563244 0.017131092
0.02771131 -0.043151725 0.06544528 0.03510121 0.036350414 0.026728516 0.01555792 0.029148333
0.03370155 0.10056597 -0.001363129 0.07377334 0.015013611 0.032617662 -0.015684832 0.07792709
0.032759365 0.033155847 0.047930088 0.024612054 0.038505204 0.035655674 0.050899636 0.079262435
0.0004277623 0.053724177 0.05920914 0.053629246 0.006499446 -0.02016486 0.015291865 0.027091073
-0.067584135 -0.04572925 -0.02290793 -0.04166601 0.084007695 0.03570443 0.044585634 0.023133585
00000000: bca6 b23d e18f 883b eb6d 2a3d b8a0 ca3d
00000010: 200c 60bc 737f 723c 0664 863d 39fe 963c
00000020: 9707 ec3c 14ca bf3b aa1f 3f3d 4dab ce3c
00000030: 7db3 b43c f475 0f3d 9f6f e53c 6e06 753c
00000040: 7fe4 753d 1983 fc3b 30d6 d63c 43b9 25bd
00000050: 3955 95bc d5d7 3d3d 8456 3c3c b000 27bd
00000060: c3ab 3f3d 9941 c0bb d2ae 59bd 5aa2 6e3c
00000070: 6fb6 883b 3eae 41bd b63a ff3b 5826 e33c
00000080: 81df 42bd 9b71 a0bc ede5 d0bc a2e0 eabb
00000090: 51f9 b13c ef5e 38bd 64b6 4c3d 55fe 35bd
000000a0: 9ba2 ffbc e2cd 283c 96f1 50b9 e010 49bd
000000b0: 31df ed3c 892e 5a3a 408f 253d 28d3 8b3d
000000c0: 08d9 4e3c 85fd 68bc 3cd4 a03d 3924 663c
000000d0: 8068 c4bb a959 853d ed63 893d fa81 b6bb
000000e0: 1de2 693d 659c 8e3d 45ac 923c 3432 8c3d
000000f0: 7a01 fb3c 3798 28bd 91e0 8d3d 7ff5 b0bc
00000100: f5cd 1ebd 275d 4c3d d092 133c 776f 09bd
00000110: 89af 973c b803 f5bc 45e6 d0bc 98f0 c23c
00000120: e4ea ad3d 2388 8d3c 6f99 5ebc 4b34 983c
00000130: c597 3b3c b4bb 99bc 24aa b23d 6e56 b13c
00000140: d346 f9ba 9424 983c 9f25 d8bc b509 393d
00000150: 18a6 183c 4d0b 20bd 9b92 373d ce4a ac3c
00000160: d1be cebb 0fe7 df3c 1336 883d d8a1 3ebc
00000170: 63a4 ee3b 0c68 233d 4d53 f0bc 2944 21bd
00000180: b144 fa3c 185f d3bb 488f 4c3d 9c95 d73d
00000190: cc9d 343c 498f 9a3d 766e 503d 7d9e e2bc
000001a0: 57c2 883c 65ee b03c 1844 79bc 5f89 163c
000001b0: 0203 c7bc 0e43 3bbd 7cb1 cfbc c859 8abc
000001c0: 9261 c93c 367f 973a 9098 103c 1954 213c
000001d0: f382 0cbc 7c70 0e3d 9f1c f3bc 3549 3c3d
000001e0: 79f5 22bc 293a 1cbd 556d 403d 7725 093d
000001f0: 6423 83bd aabd 4f3d 35c2 c73d b927 213d
00000200: 54db fd3c 31d1 be3c 3d6f 0bbc f281 0f3d
00000210: 880b a03c f84c 2e3d 91ec 7f3b ff87 db3d
00000220: 9747 943d c5f4 2e3d d941 953b 8bc7 f0bb
00000230: a77f 263d 7b9e 413d 4f8f 473d 434f 333d
00000240: fd63 7a3d 3a40 2c3d b2b5 1d3c 00a9 003d
00000250: ab4a fd3c 2b0c 82bd c782 663d 7068 453b
00000260: e631 b6bb 45a6 143d 373b b93d 0ecb c53c
00000270: c734 793d cadf 673d eff7 7cbc adae b53d
00000280: 5069 aa3c 4e1b 4cbd dad6 ef3d 627d 773c
00000290: 3a0d 89bb 3ff6 813d 324e 55bc b5d9 8ebc
000002a0: 0f0e 9e3d 64e8 6e3a 66b8 80bd 8a41 e43d
000002b0: 7946 dcbd 443d 8f3d 1de4 ce3d 5741 f4bd
000002c0: e415 b139 f621 a23d 6aa4 45bd 8f95 3c3d
000002d0: ae47 933d c529 95bc 2ac4 b33b ca36 5f3d
000002e0: 2ed4 a8bb b0df 0cbd dcdb dc3b 7637 18bd
000002f0: f0cd 76bd b8a3 563d 9276 463c a846 de3d
00000300: bd19 293d 096f 84bc c316 c23d 4fcb 233d
00000310: b9a0 843c d703 8e3d 8b85 893d 4034 293b
00000320: 8070 59bd 3ee1 1a3d 400a 32bd 35f4 fcbc
00000330: a74e ce3c 7ce2 f03c ca05 f03b 0af6 a0bc
00000340: 3183 0e3d 6b75 f5bc ef7c 413b a36f c23c
00000350: 46ad 26bd e746 993d 52f3 113d 8156 8c3c
00000360: d402 e33c ddbf 30bd 2d08 863d 49c6 0f3d
00000370: 2ce4 143d c3f5 da3c a5e6 7e3c 7cc8 ee3c
00000380: a30a 0a3d 88f5 cd3d 05ab b2ba 7a16 973d
00000390: a6fb 753c 199a 053d 7a7d 80bc 3d98 9f3d
000003a0: af2e 063d 6dce 073d 5752 443d 389f c93c
000003b0: a2b7 1d3d af0b 123d 237c 503d 5854 a23d
000003c0: 4945 e039 e20d 5c3d 4885 723d 57aa 5b3d
000003d0: 4ef9 d43b c730 a5bc bb8a 7a3c 19ee dd3c
000003e0: 8d69 8abd 984e 3bbd 69a9 bbbc faa9 2abd
000003f0: 3a0c ac3d cf3e 123d 6d9f 363d a582 bd3c

conv3.bias f4 [128]
0.004086327 0.0023654054 -0.006625278 -0.04208607 -0.014297906 0.015809128 -0.032261293 0.0057931184
-0.013141709 -0.02472158 0.0018625072 -0.02296464 0.0010451546 0.031556707 0.007932358 0.016998699
0.0011521685 0.029005622 -0.0018150102 -0.01112939 -0.019608125 0.0067147794 -0.03184377 0.029098107
0.018536689 0.031108268 0.02951041 0.01186728 0.037112035 0.035006307 -0.004014377 0.015313618
0.02431861 0.03182177 0.02630853 0.0063102944 0.027597181 0.015448039 -0.03951874 0.0049528866
-0.0022922242 -0.021417709 -0.01576725 0.026973622 -0.028444353 -0.022761011 0.004511468 0.014371005
-0.032274976 -0.004850827 0.026102453 -0.016079353 0.037355486 -0.0079312185 -0.021965014 0.0066046137
0.037911516 0.033648714 0.0037932848 0.012812089 -0.02471269 -0.014276255 0.006727073 0.03979518
-0.024420094 0.018369725 0.001084055 0.01993467 -0.04125999 0.037620313 -0.025954803 0.025673801
-0.016050026 0.017228585 -0.0065809186 -0.03543883 0.028424978 -0.026584031 0.03803756 -0.0257797
-0.03690134 0.03852424 -0.003288609 -0.023279086 0.031725958 0.0008777632 0.020098962 0.010775139
-0.029721377 -0.0032577966 0.03697347 0.010722921 0.0035589526 -0.012020619 0.033679217 0.0057587447
-0.02913885 -0.0064538843 -0.005924528 -0.012282648 0.03711557 0.007007394 -0.015298117 0.011757993
-0.010038475 -0.0331097 -0.0035577721 -0.00018318032 0.031015275 -0.023029584 0.01743517 -0.017356219
-0.0071967067 -0.0120124025 -0.031940084 -0.027635764 -0.012671912 0.029810097 0.03170543 -0.02886596
0.022215232 -0.040590942 0.019605428 0.00478285 0.0063598477 -0.03876101 0.04067568 0.030666122
00000000: 98e6 853b eb04 1b3b dc18 d9bb 7162 2cbd
00000010: c441 6abc 2582 813c 6b24 04bd 33d4 bd3b
00000020: 5350 57bc e984 cabc 5f1f f43a 5720 bcbc
00000030: 92fd 883a 9b41 013d b9f6 013c db40 8b3c
00000040: 5c04 973a 339d ed3c a3e5 edba 0c58 36bc
00000050: 38a1 a0bc a707 dc3b 9d6e 02bd 275f ee3c
00000060: 41da 973c c4d6 fe3c d1bf f13c fb6e 423c
00000070: ca02 183d c662 0f3d 098b 83bb f8e5 7a3c
00000080: d237 c73c 8b57 023d fc84 d73c 96c6 ce3b
00000090: 7c13 e23c c619 7d3c 67de 21bd d34b a23b
000000a0: 2439 16bb 3174 afbc 522a 81bc c9f7 dc3c
000000b0: 2204 e9bc 4d75 babc f0d4 933b 5d74 6b3c
000000c0: c432 04bd b0f3 9ebb d0d4 d53c d9b8 83bc
000000d0: 1102 193d f1f1 01bc f9ef b3bc 846b d83b
000000e0: 1b49 1b3d 3cd3 093d c298 783b cce9 513c
000000f0: 4472 cabc f4e6 69bc c76e dc3b 4500 233d
00000100: a60c c8bc 1b7c 963c da16 8e3a 084e a33c
00000110: 3c00 29bd c217 1a3d 2b9f d4bc dd51 d23c
00000120: 587b 83bc f622 8d3c bfa4 d7bb 4e28 11bd
00000130: 80db e83c c1c6 d9bc 46cd 1b3d f32f d3bc
00000140: dc25 17bd 98cb 1d3d b485 57bb c8b3 bebc
00000150: 14f3 013d b119 663a 94a6 a43c 358a 303c
00000160: 3f7a f3bc c280 55bb 7e71 173d 31af 2f3c
00000170: 513d 693b 21f2 44bc 38f3 093d dab3 bc3b
00000180: 99b4 eebc 1b7b d3bb 8b22 c2bb 293d 49bc
00000190: 7f06 183d 489e e53b f4a4 7abc 99a4 403c
000001a0: 6a78 24bc 099e 07bd 8329 69bb 1814 40b9
000001b0: bf13 fe3c 8aa8 bcbc 34d4 8e3c a12e 8ebc
000001c0: 5ad2 ebbb abcf 44bc 9bd3 02bd 6664 e2bc
000001d0: da9d 4fbc 4e34 f43c 8edd 013d 4e78 ecbc
000001e0: b8fc b53c b042 26bd 909b a03c 74b9 9c3b
000001f0: 4566 d03b ddc3 1ebd 8b9b 263d 8537 fb3c

bn3.weight f4 [128]
1.0115384 1.0889413 1.0067377 1.0947843 1.030486 1.0272583 1.0559524 1.056714
1.087758 1.0607631 1.0817827 1.1067919 1.1173186 1.0011023 0.92722726 1.0988466
1.0867053 1.0648186 1.1038224 1.0909514 1.1145272 1.1099428 1.0739812 1.0822141
1.0151378 1.1026981 0.99226624 1.1124972 1.0687206 1.0200043 1.1025915 1.0706025
0.99479884 1.0928131 1.0349114 1.1006763 1.0616989 1.0906597 0.971774 1.0279332
1.0953608 1.0961366 1.0232645 1.0856208 1.0911728 1.0168489 1.0076466 0.98558086
1.0960984 1.0203329 1.1089462 1.0065826 1.0915992 1.1006753 1.09851 1.0956999
1.1011698 1.0447459 1.0287464 1.0228302 1.1024857 1.0402005 1.0241169 1.1040009
1.0176955 1.0989964 1.089191 0.9862192 1.0127053 1.100427 1.0180516 1.0865402
1.1000134 1.0962536 1.0282372 0.9997734 1.0298738 1.0424972 0.97893214 1.0804232
1.0285183 1.0826064 1.1040386 1.0361246 1.060253 1.113589 1.0277812 1.0948867
1.1205411 1.0850596 1.008823 1.1167856 1.1010242 1.0884295 1.110282 1.012871
1.0259567 1.0173534 1.0834079 1.0134065 1.0803257 1.1002983 0.999881 1.0921879
1.0953748 1.1131376 1.0238345 0.99633 0.9970073 1.0330752 1.0743513 0.94394386
1.0913161 1.0313056 1.0332478 1.0275817 1.1192535 1.1140517 1.0966874 1.1067772
1.07782 1.0968813 1.0905256 1.014209 1.0937171 0.9731477 0.990508 1.0235684
00000000: 177a 813f 6e62 8b3f c8dc 803f e421 8c3f
00000010: f7e6 833f 337d 833f 7329 873f 6842 873f
00000020: a73b 8b3f 16c7 873f db77 8a3f 5bab 8d3f
00000030: 4c04 8f3f 1f24 803f c45e 6d3f 01a7 8c3f
00000040: 2919 8b3f fa4b 883f 0d4a 8d3f 4ca4 8b3f
00000050: d4a8 8e3f 9b12 8e3f 3778 893f fe85 8a3f
00000060: 09f0 813f 3625 8d3f 2905 7e3f 4f66 8e3f
00000070: d6cb 883f 808f 823f b821 8d3f 8109 893f
00000080: 23ab 7e3f 4de1 8b3f fa77 843f f6e2 8c3f
00000090: c0e5 873f bd9a 8b3f 2ec6 783f 5193 833f
000000a0: c834 8c3f 344e 8c3f 55fa 823f 9ff5 8a3f
000000b0: 8dab 8b3f 1b28 823f 90fa 803f 074f 7c3f
000000c0: f44c 8c3f 459a 823f f3f1 8d3f b3d7 803f
000000d0: 86b9 8b3f eee2 8c3f fa9b 8c3f e53f 8c3f
000000e0: 22f3 8c3f 3cba 853f f6ad 833f 1aec 823f
000000f0: 401e 8d3f 4a25 853f 4316 833f e74f 8d3f
00000100: d943 823f eaab 8c3f 9c6a 8b3f dd78 7c3f
00000110: 54a0 813f cbda 8c3f 844f 823f c013 8b3f
00000120: 3dcd 8c3f 0a52 8c3f 479d 833f 26f1 7f3f
00000130: e8d2 833f 8c70 853f 4c9b 7a3f 4f4b 8a3f
00000140: 7da6 833f d992 8a3f 2351 8d3f bb9f 843f
00000150: 5fb6 873f 168a 8e3f 568e 833f 3f25 8c3f
00000160: e46d 8f3f 3ce3 8a3f 1d21 813f d5f2 8e3f
00000170: 5cee 8c3f a851 8b3f b81d 8e3f c2a5 813f
00000180: 8d52 833f a338 823f 1cad 8a3f 4eb7 813f
00000190: 1d48 8a3f 93d6 8c3f 34f8 7f3f d0cc 8b3f
000001a0: 3e35 8c3f 4b7b 8e3f 020d 833f 7c0f 7f3f
000001b0: df3b 7f3f cf3b 843f 5884 893f 4ea6 713f
000001c0: 3fb0 8b3f d201 843f 7741 843f cc87 833f
000001d0: b343 8f3f 3f99 8e3f 4160 8c3f e0aa 8d3f
000001e0: 01f6 893f 9b66 8c3f 5896 8b3f 9ad1 813f
000001f0: ecfe 8b3f 3520 793f ef91 7d3f 4a04 833f

bn3.bias f4 [128]
0.023485925 0.005097755 0.035584856 0.022938723 0.08401102 0.051682252 0.048508096 0.07033068
0.012324839 0.06940582 0.019665157 0.008531238 0.016869118 0.017209781 -0.039386597 0.020721454
0.091799624 0.07886497 0.0032124948 -0.00038749844 0.017996851 0.02429833 0.071373835 0.02307836
0.053645566 0.020732883 0.042066358 0.032280285 0.05732584 0.07241548 0.016253559 -0.038214084
0.019681519 0.00073808566 0.08283781 0.017900394 0.10473169 0.023914786 0.0152034545 0.07332912
0.003479503 0.022958504 0.0746079 0.013368099 0.015237817 0.03235661 0.036219373 0.015350347
0.0064625554 0.07373595 0.01926711 0.046716165 0.0027973608 0.017640704 0.022529323 0.00074077066
0.0152727375 0.087832846 0.06709134 0.07203962 0.015851293 0.09013531 0.08276488 0.02024802
0.07595961 0.021996943 0.024509473 0.03734506 0.06970789 0.020374592 0.05617329 0.014131313
0.01302342 0.019963361 0.05575775 0.030464929 0.052506074 0.0585115 0.012384207 0.0127609875
0.08573259 0.012554075 0.016978163 0.052836798 0.050860476 0.015601351 0.06630611 0.016299503
0.012069913 0.015656719 0.039824627 0.016965609 0.020910509 0.019006986 0.02595462 0.06793248
0.07340244 0.078876056 0.0075484957 0.06696656 0.021084607 -0.029460676 0.023253832 0.014665522
0.018368548 0.021591604 0.06688082 0.022304252 0.006510696 0.05049259 0.0053969603 -0.041005675
0.0016582373 0.08327764 0.06999627 0.06848269 0.012982819 0.017985264 0.016899042 0.010726178
-0.0160623 -0.04376903 0.015244695 0.07744483 0.025491247 -0.034703176 0.03867967 0.0763831
00000000: 8e65 c03c 120b a73b 6dc1 113d fde9 bb3c
00000010: f80d ac3d c5b0 533d 6db0 463d 8809 903d
00000020: 1fee 493c a324 8e3d d318 a13c 9bc6 0b3c
00000030: 1b31 8a3c 87fb 8c3c d753 21bd 0ac0 a93c
00000040: 7101 bc3d f583 a13d b888 523b 2929 cbb9
00000050: 226e 933c 4b0d c73c 722c 923d d40e bd3c
00000060: 74bb 5b3d 02d8 a93c c64d 2c3d 5538 043d
00000070: 80ce 6a3d 914e 943d 2f26 853c 5f86 1cbd
00000080: 233b a13c 177c 413a dfa6 a93d d9a3 923c
00000090: 917d d63d f1e8 c33c e917 793c 942d 963d
000000a0: 6008 643b 7913 bc3c 07cc 983d df05 5b3c
000000b0: 09a8 793c 5d88 043d c45a 143d 0680 7b3c
000000c0: d8c3 d33b e002 973d 0fd6 9d3c 7359 3f3d
000000d0: ed53 373b 3d83 903c 6a8f b83c 4730 423a
000000e0: 813a 7a3c b5e1 b33d 2f67 893d 8289 933d
000000f0: 92da 813c dd98 b83d a280 a93d 2ddf a53c
00000100: b690 9b3d ef32 b43c 17c8 c83c 22f7 183d
00000110: 03c3 8e3d 9ee8 a63c f715 663d 0687 673c
00000120: 2f60 553c 348a a33c 3d62 643d 9691 f93c
00000130: 9c10 573d c1a9 6f3d 21e7 4a3c 7613 513c
00000140: 9194 af3d 9baf 4d3c ca15 8b3c 666b 583d
00000150: 1353 503d cf9c 7f3c 7fcb 873d 8986 853c
00000160: e2c0 453c 8542 803c 261f 233d 76fb 8a3c
00000170: 844c ab3c 8ab4 9b3c c99e d43c 2f20 8b3d
00000180: 0554 963d c589 a13d 5f59 f73b c425 893d
00000190: a0b9 ac3c 8457 f1bc d27e be3c a847 703c
000001a0: a379 963c e0e0 b03c d0f8 883d 68b7 b63c
000001b0: ad57 d53b 51d1 4e3d fcd8 b03b 91f5 27bd
000001c0: 3659 d93a 788d aa3d 345a 8f3d a740 8c3d
000001d0: e4b5 543c d555 933c dc6f 8a3c dabc 2f3c
000001e0: 1695 83bc 2847 33bd e3c4 793c 659b 9e3d
000001f0: 05d3 d03c eb24 0ebd 936e 1e3d be6e 9c3d

bn3.running_mean f4 [128]
2.5735736 2.771661 1.5004861 2.7116318 -1.0104573 2.6305113 2.6360812 1.3547275
3.327313 1.6973251 2.8978357 2.191996 2.4286678 3.0926456 0.5998686 2.7724001
1.2989154 -0.15158638 2.679539 3.0260262 2.5142639 2.622431 -0.39245048 2.2452552
0.48311436 2.0662127 -0.55102766 2.1209352 -0.4639342 -1.0916969 2.8148034 2.9046655
3.927657 2.6141126 -3.0395513 2.8247073 0.5149945 3.0447185 2.5055006 -0.8149811
2.849859 1.831491 -1.4158257 3.452401 2.487784 3.4252036 1.8424785 3.8233933
2.4511685 -1.177294 3.1231427 3.5158012 2.665705 2.7636495 3.15734 2.6301014
2.6941595 -1.6839521 1.1757708 0.81614923 2.6049848 -1.2790322 -0.85549253 2.4055688
-0.62522095 3.2850947 2.186511 -0.6918082 0.32897824 2.6988037 1.7613811 3.2712038
2.5781517 3.3724885 0.18349658 3.010391 4.1216288 3.4947972 1.1848812 3.2320817
-1.7287285 2.1777737 3.0133452 0.9333942 1.9179436 2.5770073 1.6632633 2.485596
2.35333 2.8692243 1.5126469 2.6447637 2.4938617 2.927855 2.778811 0.0026252521
0.6744209 -1.3434422 3.3715901 -0.62836903 2.301841 2.9763565 2.1996522 3.0851636
3.4092553 3.586377 -0.013755146 2.2707539 0.598746 2.6648438 2.9975045 3.1234233
2.8540032 -1.8368129 1.4498318 0.88641167 2.61823 3.1484635 3.145618 2.2396026
2.6808205 2.069449 2.1899354 -0.6799023 2.4954395 5.4398394 1.9440047 -0.6046064
00000000: 6eb5 2440 e562 3140 ee0f c03f 608b 2d40
00000010: aa56 81bf 4c5a 2840 8eb5 2840 b667 ad3f
00000020: b2f2 5440 f341 d93f 2476 3940 aa49 0c40
00000030: 4b6f 1b40 e8ed 4540 fd90 193f 016f 3140
00000040: dc42 a63f 7639 1bbe 917d 2b40 6aaa 4140
00000050: b3e9 2040 e9d5 2740 45ef c8be 43b2 0f40
00000060: c45a f73e d43c 0440 2610 0dbf 67bd 0740
00000070: c988 edbe b9bc 8bbf bd25 3440 0ae6 3940
00000080: bb5e 7b40 9f4d 2740 0288 42c0 01c8 3440
00000090: aed6 033f abdc 4240 1f5a 2040 9aa2 50bf
000000a0: 1764 3640 4c6e ea3f c739 b5bf 23f4 5c40
000000b0: da37 1f40 8936 5b40 56d6 eb3f 7ab2 7440
000000c0: f2df 1c40 92b1 96bf 92e1 4740 e302 6140
000000d0: e99a 2a40 a2df 3040 dc11 4a40 9553 2840
000000e0: 1c6d 2c40 be8b d7bf a87f 963f 28ef 503f
000000f0: 12b8 2640 54b7 a3bf 8f01 5bbf d7f4 1940
00000100: 7b0e 20bf fe3e 5240 ccef 0b40 581a 31bf
00000110: d66f a83e 33b9 2c40 f074 e13f 675b 5140
00000120: 7000 2540 dad6 5740 87e6 3b3e 3faa 4040
00000130: 62e4 8340 c2aa 5f40 30aa 973f 6dda 4e40
00000140: fa46 ddbf a560 0b40 a6da 4040 ecf2 6e3f
00000150: 2d7f f53f b0ed 2440 d0e5 d43f 0114 1f40
00000160: f59c 1640 5fa1 3740 6a9e c13f cf43 2940
00000170: 6e9b 1f40 fa61 3b40 0ad8 3140 6c0c 2c3b
00000180: d9a6 2c3f eaf5 abbf 22c8 5740 cbdc 20bf
00000190: 5d51 1340 a07c 3e40 1ac7 0c40 5273 4540
000001a0: 3d31 5a40 3387 6540 445d 61bc 0854 1140
000001b0: 6b47 193f cd8c 2a40 1dd7 3f40 2be6 4740
000001c0: fda7 3640 af1c ebbf 1794 b93f e0eb 623f
000001d0: 1591 2740 6d80 4940 ce51 4940 a655 0f40
000001e0: 9092 2b40 da71 0440 e727 0c40 140e 2ebf
000001f0: 48b5 1f40 2a13 ae40 25d5 f83f 7cc7 1abf

bn3.running_var f4 [128]
3.0521023 19.398409 5.7222676 32.95446 15.751013 7.848438 4.20312 3.1390634
37.812454 5.313783 26.71798 16.628355 22.211895 3.4120395 13.693336 25.16403
8.456408 7.643116 19.565172 33.01822 20.380035 25.945498 7.208914 22.675533
16.28505 13.271633 18.779465 21.36188 4.9483294 33.333736 27.93767 19.300419
5.360889 24.572578 42.91809 29.531048 17.455084 30.843496 3.891515 28.742067
28.217186 13.405292 23.259428 35.393288 23.101435 6.8880877 4.869988 8.282436
19.934826 29.280119 38.765064 8.745157 38.29942 28.942987 40.08283 26.883215
23.36584 23.199318 8.536097 13.239256 28.566849 19.918087 17.007416 19.69731
23.625784 40.983746 23.067421 17.515577 13.749037 22.18752 6.247924 28.752731
25.412342 35.972225 6.04358 4.9606586 6.113413 5.123721 13.173358 32.74595
30.820145 18.282907 29.540142 7.372905 4.806727 26.665499 5.2793655 19.823132
21.343008 23.569073 7.5439405 20.374548 18.41651 24.504179 29.726566 14.315967
14.058252 25.150517 26.539633 25.093864 13.169899 25.676544 6.3093834 35.95958
24.86675 37.449383 21.502428 5.960469 4.8403835 5.501463 30.794914 6.050457
27.274967 26.621876 11.641725 8.015508 33.257626 38.404953 35.04384 20.351353
25.559175 19.968115 18.7781 16.8464 23.472422 9.813797 6.4665704 16.899479
00000000: a555 4340 f12f 9b41 d11c b740 5ed1 0342
00000010: 2604 7c41 6726 fb40 f67f 8640 6ae6 4840
00000020: f43f 1742 830a aa40 6cbe d541 df06 8541
00000030: f6b1 b141 db5e 5a40 e717 5b41 ef4f c941
00000040: 724d 0741 6894 f440 7985 9c41 a812 0442
00000050: 500a a341 6190 cf41 6caf e640 7e67 b541
00000060: c847 8241 9c58 5441 583c 9641 21e5 aa41
00000070: b758 9e40 bf55 0542 5980 df41 4267 9a41
00000080: 678c ab40 a494 c441 20ac 2b42 963f ec41
00000090: 03a4 8b41 7bbf f641 950e 7940 c1ef e541
000000a0: ccbc e141 137c 5641 4f13 ba41 ba92 0d42
000000b0: bdcf b841 376b dc40 f1d6 9b40 dc84 0441
000000c0: 867a 9f41 af3d ea41 6d0f 1b42 2aec 0b41
000000d0: 9b32 1942 3d8b e741 d154 2042 d310 d741
000000e0: 3eed ba41 3498 b941 da93 0841 fed3 5341
000000f0: e888 e441 3e58 9f41 300f 8841 1794 9d41
00000100: 9b01 bd41 5bef 2342 148a b841 e71f 8c41
00000110: 0efc 5b41 0a80 b141 feee c740 9805 e641
00000120: 7a4c cb41 8fe3 0f42 0265 c140 b7bd 9e40
00000130: 14a1 c340 86f5 a340 13c6 5241 dafb 0242
00000140: a88f f641 6543 9241 3652 ec41 d6ee eb40
00000150: b5d0 9940 f152 d541 90f0 a840 c695 9e41
00000160: 7bbe aa41 768d bc41 f667 f140 13ff a241
00000170: 0355 9341 8f08 c441 02d0 ed41 330e 6541
00000180: 9aee 6041 4234 c941 2b51 d441 3cc0 c841
00000190: e8b7 5241 9069 cd41 78e6 c940 9cd6 0f42
000001a0: 1bef c641 2bcc 1542 f904 ac41 29bc be40
000001b0: 6ce4 9a40 fc0b b040 fc5b f641 589d c140
000001c0: 2233 da41 9af9 d441 8144 3a41 853f 0041
000001d0: cf07 0542 ac9e 1942 e42c 0c42 92cf a241
000001e0: 3179 cc41 b3be 9f41 8c39 9641 6dc5 8641
000001f0: 85c7 bb41 5005 1d41 25ee ce40 2232 8741
